stanza_resources/en/default/tokenize/ewt.pt (torch_old, 634501 bytes, 23 tensors)

embeddings.weight f4 [119, 32]
0	0x00000000	0.0
1	0x00000000	0.0
2	0x00000000	0.0
3	0x00000000	0.0
4	0x00000000	0.0
5	0x00000000	0.0
6	0x00000000	0.0
7	0x00000000	0.0
8	0x00000000	0.0
9	0x00000000	0.0
10	0x00000000	0.0
11	0x00000000	0.0
12	0x00000000	0.0
13	0x00000000	0.0
14	0x00000000	0.0
15	0x00000000	0.0
16	0x00000000	0.0
17	0x00000000	0.0
18	0x00000000	0.0
19	0x00000000	0.0
20	0x00000000	0.0
21	0x00000000	0.0
22	0x00000000	0.0
23	0x00000000	0.0
24	0x00000000	0.0
25	0x00000000	0.0
26	0x00000000	0.0
27	0x00000000	0.0
28	0x00000000	0.0
29	0x00000000	0.0
30	0x00000000	0.0
31	0x00000000	0.0
32	0xbd8deb79	-0.069296785
33	0xb989b32a	-0.00026264164
34	0x3be8fb76	0.0071100546
35	0xbdb18068	-0.0866707
36	0x3c7baa2c	0.015360396
37	0x3d310933	0.043221664
38	0xbe991d05	-0.29904953
39	0x3dcf499b	0.10121461
40	0x3e13f8f2	0.14450434
41	0x3d9014b4	0.07035199
42	0xb5ff19e1	-1.9006512e-06
43	0xbcc9662a	-0.024584848
44	0x3e90833d	0.28225127
45	0xbe13b81e	-0.14425704
46	0x3e39af5a	0.18133298
47	0x3d8cf94b	0.06883486
48	0x3e766f7c	0.24065965
49	0xbb4f1df0	-0.0031603537
50	0xbdb4cde8	-0.08828336
51	0xbe59020e	-0.2119219
52	0xbe3edb8d	-0.1863844
53	0x3cbe1d1f	0.023207245
54	0xbe7763e6	-0.24159202
55	0x3e39909e	0.18121573
56	0x3e6ff23d	0.2343225
57	0x3ef82276	0.48463792
58	0x3dcd0a11	0.10011686
59	0x3daa0f94	0.083037525
60	0x3daa0e79	0.08303542
61	0xbe9f8c5f	-0.31161782
62	0xbe83bd4f	-0.25730368
63	0x3d7146e1	0.058905486
64	0x3fa86768	1.3156557
65	0x3f29aaeb	0.66276425
66	0x3f27ca44	0.6554301
67	0xbec16464	-0.37771904
68	0x3f525313	0.8215801
69	0xbf8e428d	-1.111406
70	0x3ea27da8	0.31736493
71	0x3fa15dfa	1.2606804
72	0xbcbb908a	-0.02289607
73	0xbe28915d	-0.16461702
74	0xbfe12f70	-1.7592602
75	0x3f7d8d8b	0.990441
76	0x3f6f51bb	0.93484086
77	0x3e490801	0.1963196
78	0xbf9e7ea3	-1.2382396
79	0x3f801820	1.0007362
80	0x3c91d299	0.017800616
81	0xbf762c0a	-0.9616095
82	0xbf6a49e3	-0.9151899
83	0xbf381719	-0.71910244
84	0x3f8ca605	1.0988165
85	0x3f1a1917	0.60194534
86	0xbe750493	-0.23927526
87	0x3f4b61df	0.79446214
88	0x3f6ecf08	0.93284655
89	0xbfc71d2a	-1.5555775
90	0xbdce1a2a	-0.10063584
91	0xbfa360d6	-1.2763927
92	0x3f1699a8	0.5882821
93	0x40174207	2.363405
94	0xbfedded6	-1.8583629
95	0x3e59dafa	0.21274939
96	0xbd10028f	-0.03515869
97	0x3f7ee6be	0.99570835
98	0xbf12ebac	-0.57390857
99	0xbd7e8109	-0.062134776
100	0x3e7924b6	0.2433041
101	0x3eadeb84	0.33968747
102	0xbe928711	-0.28618672
103	0xbe0ecf1f	-0.13946198
104	0xbf59bfc0	-0.8505821
105	0xbd0d90ea	-0.03456203
106	0xbf4f362a	-0.8094202
107	0x3e6e07ed	0.23245211
108	0x3f20fca0	0.62885475
109	0x3f05c323	0.5225088
110	0xbd94aaab	-0.07259115
111	0xbda67455	-0.08127657
112	0x3e31b1d3	0.17352991
113	0x3e948e6b	0.29014906
114	0x3ff083d6	1.8790233
115	0x3ff0efaf	1.8823146
116	0xbc0b069c	-0.0084854625
117	0xbf23137c	-0.63701606
118	0x3f4f1289	0.8088766
119	0x3f76ad3b	0.9635808
120	0x3e70bf19	0.23510398
121	0xbf441921	-0.76600844
122	0xbde473d6	-0.111549065
123	0x3f956111	1.1670247
124	0x3e5aefeb	0.21380584
125	0xbec627e0	-0.38702297
126	0x3f236103	0.63819903
127	0xbe6c5aa2	-0.23081449
128	0xbe5e01f5	-0.21680434
129	0xbe10c875	-0.14138968
130	0xbf8e26ad	-1.1105553
131	0x3f7d7590	0.9900751
132	0x3ed60072	0.41797215
133	0x3c70ee55	0.01470526
134	0xbe465f6b	-0.19372337
135	0xbf9be6dd	-1.2179829
136	0xbfc21ff4	-1.5166001
137	0x3d388d08	0.045056373
138	0xbe820fc5	-0.25402656
139	0xbf466a15	-0.7750562
140	0x3ec5e902	0.38654333
141	0xbee310cc	-0.44348752
142	0x3f83bfde	1.0292928
143	0x3e0eeae3	0.1395679
144	0xbeab2fdd	-0.33434954
145	0x3f46da34	0.776767
146	0x3e826e3d	0.2547473
147	0xbf759eaf	-0.95945257
148	0xbec9d76c	-0.39422166
149	0xbeaa18c5	-0.33222023
150	0x3f486116	0.7827314
151	0x3f0b3927	0.5438408
152	0xbfa41f11	-1.2821981
153	0xbe033c76	-0.12816033
154	0x3f6155cd	0.88021547
155	0xbfcdc4ee	-1.6075723
156	0xbf4f7860	-0.8104305
157	0xbf3d70ac	-0.7400005
158	0xbdc80ec7	-0.097684436
159	0xbfed3173	-1.8530716
160	0xbf0ec235	-0.55765086
161	0xbe8d2a95	-0.2757155
162	0xbfd20ff3	-1.6411117
163	0x3f9fbccf	1.2479495
164	0x3e076a94	0.1322425
165	0x3e77e600	0.24208832
166	0x3eacfc05	0.33786026
167	0x3f6038b8	0.87586546
168	0xc020a5c1	-2.5101168
169	0xbf60a9d4	-0.8775914
170	0x3f5db366	0.86601865
171	0x3ea379da	0.31928903
172	0xbdbd11b4	-0.09231892
173	0xbf6cf5f8	-0.9256282
174	0xbf0b8b00	-0.5450897
175	0xbef41871	-0.47674897
176	0xbe8b62bb	-0.27223763
177	0xbe63a759	-0.22231807
178	0xbee401d4	-0.44532645
179	0xbe0c006a	-0.13672033
180	0x3ed14ffd	0.4088134
181	0xbf173c1c	-0.59076095
182	0xbf7767a8	-0.9664254
183	0x3ead25a5	0.33817783
184	0x3f9fc019	1.2480499
185	0xbe83b33b	-0.2572268
186	0xbe630bbd	-0.22172447
187	0x3fb08338	1.3790045
188	0xbece1722	-0.40252024
189	0x3fb6118f	1.4224108
190	0xbf6f175f	-0.93395036
191	0x3f43a5b1	0.764247
192	0xbf3b2437	-0.73102134
193	0x3f33484c	0.7003219
194	0xbf4e042e	-0.8047513
195	0x3fe6d347	1.8033227
196	0x3fa58866	1.293225
197	0x3e32019a	0.17383423
198	0x3b7a3f8f	0.0038184857
199	0xbf0bdd7e	-0.54634845
200	0x3e936411	0.28787282
201	0xbfa4acb3	-1.2865204
202	0x3fd553e1	1.6666223
203	0xbf2d9af4	-0.67814565
204	0x3d2a8d3e	0.041638605
205	0xbf193380	-0.5984421
206	0xbf18a8dc	-0.5963266
207	0xbfe1bf6d	-1.7636544
208	0x3ea2615b	0.317149
209	0xbe2dcdc7	-0.16973029
210	0xbf69615e	-0.91164196
211	0xbe7d372e	-0.2472808
212	0xbe955d67	-0.29172823
213	0x3e72e458	0.23719919
214	0xbe8b6fa6	-0.27233618
215	0x3f2d8e90	0.6779566
216	0x3ed06c8c	0.40707815
217	0xbf188845	-0.5958293
218	0x3e986343	0.2976323
219	0xbe8b5748	-0.27215028
220	0x3f72cf1e	0.94847286
221	0x3fc31464	1.5240598
222	0x3e381a20	0.17978716
223	0xbf147462	-0.57990086
224	0x3da2aecd	0.07943497
225	0x3dd59036	0.10427897
226	0x3bbd0941	0.0057689254
227	0x40138219	2.3048155
228	0x3edcc94e	0.43122333
229	0x3e9aa037	0.3020036
230	0x3f17c650	0.59286976
231	0xbe39cbf7	-0.18144213
232	0x3e13389c	0.14377064
233	0xbfe4818a	-1.7852032
234	0xbf8b2690	-1.0871143
235	0x3c502bbf	0.012705742
236	0xbdc5282c	-0.09626803
237	0x3d883070	0.06649864
238	0xbe7eec69	-0.24894871
239	0xbaa99ca9	-0.0012940365
240	0xbea8097d	-0.3281974
241	0x3eee817d	0.46583167
242	0x3c527908	0.012846239
243	0x3f261ba8	0.6488595
244	0x3ef39157	0.47571823
245	0x3d8dacaf	0.069177024
246	0xbf128429	-0.5723291
247	0xbf1cc6d9	-0.6124092
248	0xbc8d45b2	-0.017245147
249	0xbea7129d	-0.32631388
250	0xbea7e1c5	-0.32789436
251	0x3e8a2334	0.26979983
252	0xbed671ac	-0.418836
253	0xbeb7d471	-0.35904267
254	0x3f5be735	0.8589967
255	0xbee24729	-0.44194916

rnn.weight_ih_l0 f4 [256, 37]
0	0x3e0ee654	0.1395505
1	0xbe64d704	-0.22347647
2	0x3d1e78f3	0.038689565
3	0x3e2b31d9	0.16718234
4	0xbe5c52e1	-0.21515991
5	0x3e995fb3	0.29955825
6	0x3e602fdc	0.21893257
7	0x3c11c3a6	0.008896744
8	0x3e548048	0.2075206
9	0xbf059fd4	-0.52197003
10	0xbe0d0d0e	-0.13774511
11	0xbed812ca	-0.42201835
12	0xbd99e8db	-0.07515117
13	0xbe4c464a	-0.19948688
14	0x3c5995f3	0.01328038
15	0x3dbb0b2a	0.09132989
16	0x3e800e26	0.25010794
17	0xbee4483d	-0.44586363
18	0xbe6b383e	-0.22970673
19	0xbde3639c	-0.11102983
20	0x3dc02b34	0.0938324
21	0xbeaab147	-0.33338377
22	0xbe4d17bb	-0.20028584
23	0x3e57e9cb	0.21085279
24	0xbcd2a780	-0.025714636
25	0x3e894561	0.26810744
26	0x3d4f12f0	0.05055517
27	0xbe583426	-0.21113643
28	0xbe5fcb16	-0.21854815
29	0x3e13bd16	0.144276
30	0xbda0d219	-0.07852573
31	0x3e644cad	0.22294874
32	0x3f79a67f	0.9751968
33	0x3f0b1a47	0.5433697
34	0x3e675d6f	0.22594236
35	0x400f6536	2.2405524
36	0x3e379d2e	0.17931053
37	0xbe190ca9	-0.14946236
38	0x3cbb4500	0.02286005
39	0xbe088f7e	-0.13335988
40	0x3ccc619a	0.024948884
41	0x3ce92343	0.028459197
42	0x3e2fa5e7	0.1715313
43	0xbf21a560	-0.6314297
44	0xbe1d62fc	-0.15369791
45	0x3cf41761	0.029796304
46	0x3e784554	0.24245197
47	0x3dbd1ae7	0.09233647
48	0x3dcf1a90	0.10112488
49	0xbd2f6f30	-0.042830646
50	0xbd062d35	-0.032757957
51	0xbdcc37a2	-0.099715486
52	0xbe5a85dd	-0.21340127
53	0x3c8cf3f8	0.017206177
54	0x3dc6b734	0.09702912
55	0xbe6bb7ff	-0.23019408
56	0xbe5beec0	-0.21477795
57	0xbe5faa25	-0.21842249
58	0xbd28cc3b	-0.041210394
59	0xbd47c257	-0.04876932
60	0xbcdab8a8	-0.02669938
61	0x3d75be35	0.05999585
62	0x3bb93570	0.005652122
63	0x3dc61e32	0.09673728
64	0xbdb4b9ec	-0.08824524
65	0x3e50ce1e	0.20391127
66	0xbd1e00b0	-0.038574874
67	0xbe9b28fa	-0.303047
68	0xbed635c7	-0.41837904
69	0x3f81860d	1.0119034
70	0xbf33620a	-0.7007147
71	0x3f8696fd	1.0514828
72	0x40503dc7	3.2537706
73	0x3ef7276f	0.48272273
74	0x3e08c4f5	0.13356383
75	0x3e0c15d1	0.13680197
76	0x3e25331b	0.16132776
77	0xbe577860	-0.21042013
78	0xbe3c06c8	-0.18361962
79	0xbe35d56e	-0.17757198
80	0xbdcf3aa5	-0.101186074
81	0x3ee50703	0.44731912
82	0x3e00de6a	0.12584844
83	0x3e46af45	0.19402798
84	0xbe123763	-0.14278941
85	0xbcd59a07	-0.026074423
86	0x3dce23e0	0.10065436
87	0x3c6abe76	0.014327636
88	0x3dba77be	0.0910487
89	0x3dd180f2	0.102296725
90	0x3d8d3b54	0.068960816
91	0x3e20be38	0.15697563
92	0x3e2d46e9	0.16921581
93	0x3d6ea245	0.05826022
94	0x3e553404	0.20820624
95	0x3e60f9dd	0.21970315
96	0xbd873056	-0.06601016
97	0xbde4e555	-0.11176554
98	0x3d47810a	0.048707046
99	0xbe8f4087	-0.27978918
100	0xbe45aa7a	-0.19303313
101	0x3d9280ec	0.07153496
102	0x3ea76309	0.32692745
103	0x3d80c073	0.06286707
104	0x3c6eb1cf	0.01456876
105	0x3e30fbba	0.17283526
106	0x4015e8ab	2.342326
107	0xbf1200a2	-0.57032216
108	0x3eea5776	0.45769852
109	0x3fc139d3	1.5095772
110	0x3f483ff3	0.7822258
111	0x3e486486	0.19569597
112	0x3e5a4340	0.21314716
113	0xbda42ade	-0.08015989
114	0xbe8db278	-0.27675223
115	0xbd88b9f9	-0.066760965
116	0xbe4d64b0	-0.2005794
117	0x3d1e8296	0.038698755
118	0x3e067971	0.13132264
119	0x3de4a0d8	0.11163491
120	0x3e3a7904	0.18210226
121	0x3eb498ea	0.35272914
122	0xbe2cadf8	-0.16863239
123	0xbed17870	-0.409122
124	0x3d9f01f3	0.07764044
125	0xbe3dfda1	-0.18553783
126	0xbeb53f10	-0.35399675
127	0x3dd6bc50	0.104851365
128	0xbe21fc9c	-0.15819019
129	0x3d5f18ee	0.054467134
130	0xbe461c75	-0.19346793
131	0xbd16513b	-0.03669856
132	0x3e5e4796	0.21706995
133	0xbd263ff8	-0.04058835
134	0xbda273f5	-0.07932273
135	0x3cff972b	0.031200012
136	0xbcbdeb41	-0.023183467
137	0xbe73ca00	-0.23807526
138	0x3e7cfa88	0.24704945
139	0xbde98f14	-0.11404243
140	0x3e261666	0.16219482
141	0xbe74d4d8	-0.23909318
142	0xbd3c5475	-0.045978982
143	0x3e9bde0e	0.30442852
144	0xbdc8afc1	-0.097991474
145	0x3f238ad9	0.6388374
146	0x4068dea3	3.6385887
147	0x3e8fa4e0	0.28055477
148	0xbdebf790	-0.11521828
149	0x3c99f6a7	0.01879437
150	0x3dece598	0.11567229
151	0xbebd73ad	-0.37002316
152	0xbc8de4d7	-0.017321033
153	0x3ac880aa	0.0015297134
154	0x3d339cf2	0.043850847
155	0xbd23505a	-0.03987155
156	0x3d979040	0.074005604
157	0xbedda2b3	-0.43288192
158	0x3d73f294	0.059557512
159	0x3d68e2e1	0.056856994
160	0x3e8a7e53	0.27049503
161	0x3ddc4da7	0.107569985
162	0xbc74d217	-0.014942667
163	0xbd12b3bf	-0.03581595
164	0x3e37a75e	0.1793494
165	0x3ed76850	0.42071772
166	0xbe8ba2db	-0.27272686
167	0x3ac83ebe	0.0015277488
168	0xbcb5291d	-0.02211433
169	0x3e32d38f	0.17463516
170	0xbe3c8d42	-0.1841326
171	0x3d26fefd	0.04077052
172	0x3d7a0577	0.061040368
173	0xbde930b4	-0.113862425
174	0xbea385ce	-0.31938022
175	0x3d6e4831	0.058174316
176	0x3e2f3b78	0.1711253
177	0x3d8a1634	0.06742516
178	0x3d0e32c9	0.0347164
179	0x3d82633a	0.06366582
180	0x3f828517	1.0196866
181	0xbe273c5b	-0.16331618
182	0xbdd35b23	-0.10320117
183	0x3ebca7b6	0.36846703
184	0x3e3fa9f6	0.18717179
185	0x3ceb228f	0.028703002
186	0xbe0eced7	-0.1394609
187	0x3e423c9b	0.18968432
188	0xbdcafe1a	-0.09911747
189	0xbd8ce218	-0.068790615
190	0x3d65adad	0.056073833
191	0xbe0f22e4	-0.13978153
192	0xbc5b6a88	-0.013392098
193	0x3e3242f0	0.17408347
194	0xbd5f2dfe	-0.05448722
195	0x3cd60509	0.026125448
196	0xbc23c54f	-0.0099957725
197	0x3e554711	0.20827891
198	0xbe0f6c57	-0.14006172
199	0x3deefa9c	0.11668894
200	0x3dddb6ca	0.1082588
201	0x3e4188af	0.18899797
202	0x3d91a67e	0.07111834
203	0xbcffccfa	-0.03122567
204	0xbe3aa1e1	-0.18225814
205	0x3c948e57	0.01813428
206	0x3dc58be6	0.09645824
207	0x3cf3a47d	0.02974152
208	0xbd2f2ddb	-0.04276834
209	0x3e4ae9c1	0.19815733
210	0x3da20c6c	0.079125255
211	0x3dcf7aa8	0.10130817
212	0x3d8e1a51	0.06938613
213	0xbd65ee91	-0.056135718
214	0xbc0e5db5	-0.008689334
215	0x3db874d2	0.09006657
216	0x3e17ea7c	0.14835542
217	0x3dc67dd1	0.09691966
218	0xbf19629d	-0.59916097
219	0x3da420a9	0.08014042
220	0xbf4f884a	-0.81067336
221	0xbea2b410	-0.31778002
222	0x3e829d78	0.25510764
223	0x3dd6ccf3	0.1048831
224	0xbe96a92b	-0.2942594
225	0x3e72b24c	0.23700827
226	0x3d14b6dc	0.0363072
227	0x3e804cf0	0.250587
228	0xbdc46b45	-0.095907725
229	0xbf0e8774	-0.55675435
230	0xbe84191b	-0.25800404
231	0xbe617e40	-0.22020817
232	0xbe4a2ac6	-0.1974288
233	0x3e1f03fb	0.15528862
234	0xbdcb88f9	-0.09938235
235	0xbddec495	-0.10877339
236	0xbe9c12fa	-0.30483228
237	0xbe8f16c0	-0.27947044
238	0xbcf4555e	-0.029825862
239	0xbe909c6e	-0.28244346
240	0xbe530b62	-0.20609811
241	0xbe63f9b3	-0.22263221
242	0xbe54a5f3	-0.2076643
243	0x3d06f1c3	0.032945406
244	0xbdf6bff0	-0.12048328
245	0xbe1f53fb	-0.1555938
246	0x3f04c755	0.51866657
247	0xbd809077	-0.062775545
248	0xbeaf8492	-0.3428083
249	0x3d4ef6aa	0.050528206
250	0x3cd1a291	0.025590213
251	0x3e2b45f4	0.16725904
252	0xbf0b1c8e	-0.54340446
253	0xbe89beb3	-0.26903304
254	0x3f11f325	0.57011634
255	0xbe140b99	-0.14457549

rnn.weight_hh_l0 f4 [256, 64]
0	0x3e184f56	0.14874014
1	0x3eb74a12	0.357987
2	0xbe95c0f2	-0.29248768
3	0x3ea9e297	0.33180687
4	0xbeeb1775	-0.45916334
5	0xbeeee8e0	-0.46662045
6	0xbe8421f1	-0.25807145
7	0x3e9521f1	0.29127458
8	0xbed55f60	-0.41674328
9	0x3ed15f14	0.4089285
10	0xbd1c98dd	-0.03823172
11	0x3ebbc377	0.36672565
12	0xbd85dd9a	-0.06536408
13	0x3ebabcef	0.3647227
14	0xbe6e4d11	-0.23271586
15	0xbdd54ab9	-0.10414643
16	0xbec67422	-0.38760477
17	0x3ec079fe	0.37593073
18	0xbef347b1	-0.47515634
19	0x3eb847f9	0.3599241
20	0xbd33e635	-0.043920714
21	0x3e4be956	0.1991323
22	0x3be4d653	0.0069835573
23	0xbebbf941	-0.36713603
24	0xbe23dc50	-0.16002011
25	0xbcbf0c99	-0.023321437
26	0x3e029deb	0.12755553
27	0xbe8ca64d	-0.27470627
28	0xbd8b1d45	-0.06792692
29	0x3ddb28a0	0.10701108
30	0xbddfefe7	-0.109344296
31	0x3e1bec18	0.15226781
32	0x3e2177a7	0.157683
33	0xbd9d1324	-0.076696664
34	0x3f094bbb	0.5363118
35	0xbe1b1202	-0.15143588
36	0x3e9316fb	0.2872847
37	0x3f0d08a6	0.5509132
38	0xbd71d945	-0.059045095
39	0x3eabd937	0.3356416
40	0x3eaf2228	0.34205747
41	0xbe28c258	-0.16480386
42	0xbea9de17	-0.33177254
43	0x3e520bbd	0.2051229
44	0x3cce51a4	0.025185414
45	0x3e3ac9af	0.18240999
46	0xbe77b80b	-0.241913
47	0x3e634e6c	0.22197884
48	0x3dde1426	0.10843687
49	0xbe0b8b1f	-0.13627289
50	0x3db75c1f	0.089531176
51	0xbc540c95	-0.012942453
52	0x3ea7b18a	0.3275264
53	0xbf06796d	-0.5252903
54	0xbe955716	-0.29168004
55	0x3e98d0a2	0.29846674
56	0xbef1e79c	-0.47247016
57	0x3ee10e5d	0.4395627
58	0x3efc37ce	0.49261326
59	0xbea38289	-0.31935528
60	0xbe04c817	-0.12966953
61	0x3e26d4e1	0.16292144
62	0x3e808bc4	0.25106633
63	0xbe269056	-0.16265997
64	0xbe8c3fe7	-0.27392504
65	0x3da9976a	0.08280833
66	0x3e83a829	0.25714234
67	0xbf3b50d9	-0.7317024
68	0x3e292865	0.16519316
69	0x3d651bbb	0.05593465
70	0x3dfa1392	0.12210764
71	0xbc86dfb9	-0.016464101
72	0x3eb44a80	0.3521309
73	0x3e6d3187	0.23163424
74	0x3e7a26e2	0.24428895
75	0x3e8e3957	0.27778122
76	0x3dc53026	0.09628324
77	0x3ead8eea	0.33898097
78	0xbc3a21ff	-0.011360644
79	0xbe5812d2	-0.2110093
80	0x3e23e629	0.16005768
81	0x3db1a856	0.08674686
82	0xbe523716	-0.20528826
83	0xbe30dde2	-0.17272142
84	0xbe7ff617	-0.2499622
85	0xbe89e435	-0.2693192
86	0x3dbc7971	0.092028506
87	0x3d7ff9d5	0.062494118
88	0x3e027f9e	0.12743995
89	0xbee3f1ac	-0.44520319
90	0xbde7d622	-0.113201395
91	0x3d7df19c	0.061997995
92	0xbea92874	-0.33038676
93	0xbf0ad5e0	-0.542326
94	0xbf0605f3	-0.5235283
95	0x3ee544b7	0.44778988
96	0x3e2daaf2	0.16959742
97	0x3e3023c4	0.17201144
98	0xbf0bf0fd	-0.54664594
99	0xbec56894	-0.3855635
100	0xbdcb5d53	-0.099299096
101	0xbe19c0db	-0.15014975
102	0x3dad3388	0.084570944
103	0x3edb5f0f	0.4284596
104	0xbe00fd6f	-0.12596677
105	0xbe9ebdfd	-0.31004325
106	0xbdf10ab6	-0.11769621
107	0x3db9c1b9	0.09070153
108	0xbce4a001	-0.027908327
109	0xbf26326a	-0.64920676
110	0xbe92af72	-0.2864948
111	0xbdd715b7	-0.10502189
112	0xbe0b3322	-0.13593724
113	0xbee480e7	-0.44629595
114	0x3eaf4ee7	0.34239885
115	0x3e6c759b	0.23091738
116	0x3d0031b2	0.031297393
117	0xbf4a9b11	-0.7914286
118	0xbe2802f7	-0.16407381
119	0xbeac6609	-0.33671597
120	0x3d2f14db	0.0427445
121	0x3df9df71	0.12200821
122	0x3c5007b4	0.012697149
123	0xbd9370b9	-0.071992345
124	0x3e7744ac	0.2414729
125	0xbee6904c	-0.45031965
126	0x3e12597e	0.14291951
127	0x3dfdc95c	0.12391922
128	0xbdb0891d	-0.08619902
129	0x3d853abb	0.065053426
130	0xbe9a8333	-0.30178222
131	0x3ebb7564	0.36613
132	0xbd8503be	-0.064948544
133	0x3e8aa159	0.27076223
134	0x3dfa78a8	0.122300446
135	0x3dac49c3	0.084125064
136	0xbdcae666	-0.09907226
137	0x3e7afea8	0.24511206
138	0xbe38362b	-0.17989413
139	0x3e57dba5	0.21079881
140	0xbe6fc377	-0.23414408
141	0xbd9c7f5f	-0.076414816
142	0x3eec4abd	0.4615077
143	0xbd56d876	-0.052452527
144	0xbe04f7a5	-0.12985094
145	0x3ee04b47	0.43807432
146	0xbc766f7d	-0.015041229
147	0x3ebe2437	0.37137005
148	0x3e2876ce	0.1645157
149	0xbe87a96f	-0.26496455
150	0xbe3135f3	-0.17305736
151	0xbec67594	-0.3876158
152	0x3d8e774d	0.069563486
153	0x3d9cd118	0.07657069
154	0xbe8fff8b	-0.2812465
155	0xbe3e3b52	-0.18577316
156	0x3e974316	0.2954337
157	0xbde21019	-0.11038227
158	0xbdc5f228	-0.09665328
159	0xbed04d4e	-0.4068398
160	0x3d286169	0.041108523
161	0x3e0bc39e	0.13648841
162	0x3e596dfa	0.21233359
163	0x3efbcaf2	0.49178272
164	0x3ea923a9	0.3303502
165	0xbcc8d496	-0.024515431
166	0xbecc308d	-0.3988079
167	0x3f2f635e	0.68511
168	0x3eb746e4	0.35796273
169	0xbdb372c9	-0.08762128
170	0xbd391dd7	-0.045194473
171	0x3ef8cafc	0.48592365
172	0x3e318f3f	0.173398
173	0x3edb66f8	0.42851996
174	0x3f11ef24	0.57005525
175	0xbbb35efb	-0.005473969
176	0x3e781a5d	0.24228807
177	0x3db0cfc2	0.08633377
178	0x3f2ef7a3	0.68346614
179	0x3d171846	0.036888383
180	0xbe693883	-0.22775464
181	0xbe941d37	-0.2892854
182	0xbc8f4517	-0.017489
183	0x3ef16ac9	0.47151783
184	0xbe56e22c	-0.20984715
185	0x3e233813	0.1593936
186	0x3d801a0f	0.0625497
187	0xbeb3fbed	-0.35153142
188	0xbeffce3b	-0.4996203
189	0x3ea8991e	0.3292932
190	0x3f033569	0.5125337
191	0xbd8d15d3	-0.06888928
192	0xbf423373	-0.75859755
193	0x3c215d00	0.009848833
194	0xbf0e9b29	-0.55705506
195	0xbf6486fb	-0.89268464
196	0xbe5fe467	-0.21864472
197	0xbeb8b44e	-0.36075062
198	0xbef85b61	-0.48507217
199	0xbd79d07e	-0.06098985
200	0xbdc5f0db	-0.0966508
201	0x3e075deb	0.1321942
202	0x3d65e6b3	0.056128215
203	0xbe7736fa	-0.24142066
204	0x3e4574c0	0.19282818
205	0x3ee6fa46	0.45112818
206	0xbdd4d2a0	-0.10391736
207	0xbe05c5e6	-0.13063774
208	0xbe88e422	-0.26736552
209	0x3f123a4a	0.5712019
210	0xbe6fc7d0	-0.23416066
211	0x3de1295d	0.109942175
212	0xbd80bef0	-0.062864184
213	0xbd5fd85e	-0.054649703
214	0xbddb423d	-0.10705993
215	0xbeda42d9	-0.42629126
216	0xbe913011	-0.28356984
217	0x3e95e131	0.2927337
218	0x3e1331dd	0.1437449
219	0xbe522c8e	-0.20524809
220	0x3df0f5b8	0.11765617
221	0x3e9b7173	0.30359992
222	0xbf19a1cc	-0.6001251
223	0x3f33e16e	0.70265853
224	0x3e0b4e17	0.13604008
225	0x3f141508	0.5784459
226	0x3e28e9ea	0.16495481
227	0x3c5843fa	0.013199801
228	0x3eaa4b60	0.33260632
229	0x3ecfbd74	0.4057423
230	0x3d8d6a63	0.06905057
231	0x3d226a21	0.039651994
232	0xbe304a53	-0.17215852
233	0x3f100ca9	0.5626932
234	0x3e8c5626	0.27409476
235	0xbe4c0de3	-0.19927172
236	0x3f1f005a	0.6210991
237	0xbe20de49	-0.15709795
238	0xbed85b7a	-0.4225729
239	0x3e481b76	0.19541726
240	0xbf00a841	-0.50256735
241	0xbec66710	-0.38750505
242	0x3e9bf00d	0.30456582
243	0xbccd288e	-0.025043752
244	0x3e066609	0.13124861
245	0xbee97e27	-0.4560406
246	0xbf11e92f	-0.56996435
247	0x3efd92b2	0.49525982
248	0xbe65a340	-0.22425556
249	0x3f194f92	0.5988704
250	0x3f26fc86	0.6522907
251	0xbd6b0cb7	-0.057385173
252	0x3e145097	0.14483868
253	0x3f0d524e	0.5520371
254	0x3e560bea	0.20902982
255	0xbeed4d0e	-0.4634785

rnn.bias_ih_l0 f4 [256]
0	0x3eb9d0a5	0.36291996
1	0x3e97ee22	0.29673868
2	0x3d803d9e	0.062617525
3	0x3e8c0f51	0.27355435
4	0xbd586bdf	-0.05283725
5	0xbeaf774c	-0.34270704
6	0x3d907d03	0.07055094
7	0x3cd33da1	0.025786223
8	0x3ed8ed0e	0.42368358
9	0xbde501c6	-0.11181979
10	0x3e5c081f	0.21487473
11	0x3e936986	0.28791445
12	0x3cdbead1	0.026845368
13	0x3daf32b0	0.0855459
14	0x3e4376e7	0.19088326
15	0x3aa45b5d	0.0012539435
16	0x3e628dfa	0.22124472
17	0x3e8f3bb6	0.27975243
18	0xbe4f9245	-0.20270641
19	0x3e3bc121	0.18335392
20	0xbd914caa	-0.07094701
21	0xbda1e7db	-0.07905551
22	0x3e1f1e77	0.15538965
23	0xbb03157b	-0.0020001817
24	0x3e0d90cf	0.13824771
25	0xbe0c0888	-0.1367513
26	0xbe24a686	-0.16079149
27	0xbd34756f	-0.044057306
28	0x3e650035	0.2236336
29	0x3e79894f	0.24368785
30	0xbe2fc9f7	-0.17166887
31	0xbe3b42d6	-0.18287215
32	0x3e92b204	0.2865144
33	0x3d88c922	0.06678988
34	0x3ead1e6b	0.3381227
35	0xbe17fa2c	-0.14841527
36	0x3e0ea824	0.13931328
37	0x3c78762d	0.015164894
38	0x3e3004b3	0.17189293
39	0x3d63f10b	0.0556498
40	0x3d7a5459	0.061115596
41	0x3e183e1a	0.1486744
42	0x3e06d5ea	0.13167539
43	0x3e4fa5c8	0.20278084
44	0xbe57feaa	-0.2109324
45	0x3dbeeb89	0.093222685
46	0x3e6a7502	0.22896197
47	0xbe9c1d23	-0.3049098
48	0xbd826c90	-0.06368363
49	0x3e03e437	0.12880026
50	0x3e1c3580	0.15254784
51	0x3e1e2c26	0.15446529
52	0xbe73945a	-0.2378706
53	0xbb4c9f8a	-0.0031223022
54	0xbe0170cd	-0.12640686
55	0x3efd0a0c	0.49421728
56	0x3e590451	0.21193053
57	0x3d515bcb	0.05111293
58	0x3b19436d	0.0023386136
59	0x3e8dcaa5	0.27693668
60	0x3c40c4c6	0.011765664
61	0x3e65c40b	0.22438066
62	0xbe86815d	-0.2627057
63	0x3e0898ba	0.1333951
64	0xbe6596f3	-0.22420864
65	0xbf052ea1	-0.52024275
66	0xbdb76324	-0.089544564
67	0xbec38336	-0.38186044
68	0xbe973528	-0.29532743
69	0x3ec37bc3	0.3818036
70	0xbedfeded	-0.4373621
71	0xbe172e1c	-0.14763683
72	0xbe89e58f	-0.26932952
73	0x3d96463a	0.073376134
74	0xbebd2d51	-0.36948636
75	0xbe4c7b26	-0.19968852
76	0xbd4913e1	-0.049091224
77	0xbd60a5dc	-0.054845676
78	0xbd1664fd	-0.036717404
79	0xbd5cac46	-0.05387523
80	0xbeb0b358	-0.34511828
81	0xbe814c19	-0.2525337
82	0x3e831d83	0.25608453
83	0xbe2aa808	-0.16665661
84	0xbddfdbc1	-0.109305866
85	0xbc3cc220	-0.011520892
86	0xbec90f84	-0.3926965
87	0xbea207b8	-0.31646514
88	0xbeb00e8d	-0.343861
89	0x3d11cb60	0.035594344
90	0x3e1ff889	0.15622152
91	0xbe51b16e	-0.2047784
92	0xbe2cd297	-0.16877209
93	0xbf0a35ce	-0.5398835
94	0xbd5fbe0e	-0.05462461
95	0x3df5e296	0.120061085
96	0xbea1e4a0	-0.3161974
97	0xbb8a22e9	-0.0042155874
98	0xbf1d6004	-0.61474633
99	0xbdaef72f	-0.0854324
100	0xbdfcd657	-0.123455696
101	0xbed4ae2a	-0.41539127
102	0xbd6416a6	-0.05568566
103	0xbe98a621	-0.29814246
104	0xbef54486	-0.47903842
105	0xbec604b3	-0.3867546
106	0xbee4cb15	-0.4468619
107	0x3d951313	0.07279029
108	0xbeb308c9	-0.3496764
109	0xbb277fc6	-0.0025558337
110	0xbe4e6140	-0.20154285
111	0xbe8d2472	-0.27566868
112	0x3eabede2	0.33579928
113	0x3d30fb90	0.04320866
114	0x3da11321	0.07864977
115	0xbe7fceb7	-0.24981199
116	0xbe0485bd	-0.12941642
117	0xbe3ae13e	-0.18249986
118	0xbeac0b14	-0.33602202
119	0xbe88a33d	-0.2668704
120	0x3d282416	0.04105004
121	0xbe3f2a3a	-0.18668452
122	0xbe8beab2	-0.27327496
123	0xbdef82ce	-0.11694871
124	0xbd87bbc1	-0.06627608
125	0xbf333630	-0.7000456
126	0xbde7c9b2	-0.11317767
127	0x3e60f519	0.21968497
128	0x3dc1a05a	0.09454413
129	0x3df724c3	0.120675586
130	0xbdd5f1cc	-0.1044651
131	0x3d84411c	0.06457731
132	0x3d45946a	0.04823724
133	0xbd42a240	-0.047518015
134	0x3d901882	0.070359245
135	0x3dc921ef	0.098209254
136	0x3c87d945	0.016583094
137	0xbbe68872	-0.0070353085
138	0x3e53857d	0.2065639
139	0x3dabe56d	0.08393369
140	0x3cee3226	0.029076647
141	0xbdcbf541	-0.09958888
142	0xbe53a2a0	-0.20667505
143	0x3cadc9bb	0.021214357
144	0x3e889e06	0.26683062
145	0x3d6402db	0.055666786
146	0xbcdd3025	-0.027000496
147	0xbcf27f94	-0.02960185
148	0xbda6bc13	-0.08141341
149	0x3d8c4660	0.068493605
150	0xbe2505ab	-0.16115443
151	0x3cc81248	0.02442278
152	0x3d1d842b	0.038456123
153	0x3e20cacf	0.15702365
154	0x3df0b37c	0.11752984
155	0xbe142d54	-0.14470416
156	0xbc0449ab	-0.008074204
157	0xbd7b8a2c	-0.061411068
158	0x3df0f86f	0.11766135
159	0x3e5b263f	0.21401308
160	0x3e06beac	0.13158673
161	0x3d0d6821	0.034523133
162	0x3cab2d53	0.020895636
163	0xbda0bb15	-0.07848183
164	0xbc51f604	-0.012815002
165	0x3dde6de2	0.10860802
166	0xbdbf4cac	-0.09340796
167	0xbb2df2a8	-0.002654234
168	0x3f1c19ff	0.60977167
169	0x3e483ce3	0.19554476
170	0xbe0da38b	-0.13831918
171	0x3dc8802d	0.097900726
172	0xbdd33dd7	-0.103145294
173	0xbdb98e73	-0.09060373
174	0x3db7b0d0	0.08969271
175	0xbc2f045b	-0.010682191
176	0xbd987691	-0.0744449
177	0xbe71aae2	-0.23600343
178	0x3e19d61e	0.15023085
179	0x3e62438e	0.22096083
180	0xbde599f1	-0.112110026
181	0x3c55a0e9	0.013038852
182	0x3e2178f4	0.15768796
183	0x3dd79127	0.105257325
184	0xbda4dcf3	-0.08049955
185	0xbdfa8894	-0.122330815
186	0x3d0833d4	0.033252552
187	0x3d679a08	0.05654338
188	0xbd8498db	-0.06474467
189	0xbc8c7c83	-0.017149216
190	0x3ec3e44f	0.38260123
191	0x3e38a375	0.18031104
192	0x3e0870e2	0.13324311
193	0x3e77830f	0.24171089
194	0x3ea859ea	0.328811
195	0x3e147c79	0.14500608
196	0xbe2ca5ab	-0.16860072
197	0x3e292866	0.16519317
198	0x3e097dd0	0.134269
199	0x3e74a73b	0.23891918
200	0x3e7397e0	0.23788404
201	0x3cee9cfe	0.029127594
202	0x3d807561	0.06272388
203	0x3e7d83ae	0.24757263
204	0x3da29330	0.0793823
205	0x3e9d3a8e	0.30708736
206	0x3e4424b0	0.1915462
207	0x3da6a7b2	0.08137454
208	0x3e4de69c	0.20107502
209	0x3eb12fb9	0.34606722
210	0x3e547466	0.20747527
211	0x3d2352f9	0.03987405
212	0x3df6012b	0.120119415
213	0x3d24490e	0.040108733
214	0x3e9ae29f	0.30251023
215	0x3db110d2	0.08645786
216	0x3e9c7c56	0.3056361
217	0x3e52bc45	0.20579632
218	0x3d0be40b	0.034153026
219	0x3ceded08	0.02904369
220	0xbc7ec356	-0.015549501
221	0x3e2c11d5	0.16803677
222	0x3e731474	0.23738271
223	0xbd913638	-0.070904195
224	0x3e3a3a46	0.18186292
225	0x3e798e75	0.2437075
226	0x3ecdba31	0.40181115
227	0xbe7064f9	-0.23476018
228	0x3cf4711f	0.029839097
229	0x3cd42282	0.02589536
230	0x3dcfdc15	0.10149399
231	0x3d3ced6c	0.04612486
232	0xbd080f3a	-0.033217646
233	0x3e84e211	0.25953725
234	0x3ef1254b	0.47098765
235	0x3ed71cd0	0.4201417
236	0x3e2bd9e2	0.16782334
237	0x3e89c95a	0.26911432
238	0x3e4df9ab	0.20114772
239	0x3e6f578c	0.2337324
240	0xbd356515	-0.044285852
241	0x3ce6e4f2	0.028185342
242	0x3ed2d21e	0.41175932
243	0x3df8f018	0.12155169
244	0xbb002876	-0.0019555367
245	0x3e508bca	0.20365825
246	0xbb0681a7	-0.0020524056
247	0x3f1b77cd	0.60729676
248	0xbd86e798	-0.06587142
249	0x3e8dacaa	0.27670795
250	0xbae12c15	-0.0017179275
251	0x3eefdd1d	0.46848384
252	0x3e8339db	0.25630078
253	0x3e2979dc	0.16550392
254	0xbdc48518	-0.09595698
255	0x3e7f51d2	0.24933556

rnn.bias_hh_l0 f4 [256]
0	0x3ead537e	0.33852762
1	0x3edba037	0.42895672
2	0xbd090842	-0.03345514
3	0x3e941953	0.2892557
4	0xbdc38a24	-0.095478326
5	0xbe939f0f	-0.2883229
6	0x3dd3e320	0.10346055
7	0x3c1667ab	0.00917999
8	0x3e82b317	0.2552726
9	0xbde41f0c	-0.11138734
10	0x3dcc7a66	0.09984283
11	0x3ddf6f0a	0.10909851
12	0x3d84cb30	0.064840674
13	0x3e48ae3b	0.19597714
14	0x3d6d1c7c	0.057888493
15	0x3d54c5d1	0.051946465
16	0x3e7b0d4b	0.2451679
17	0x3e71ae1f	0.23601578
18	0xbe39c61a	-0.18141976
19	0x3e3785cd	0.17922135
20	0xbcaefaf0	-0.02135989
21	0xbd226a73	-0.0396523
22	0x3de9d952	0.11418404
23	0x3dcd8128	0.100344
24	0x3e3f36e7	0.18673287
25	0xbd839755	-0.06425349
26	0xbe9224b4	-0.28543627
27	0xbdf0db1d	-0.117605425
28	0x3cf192f8	0.029489025
29	0x3e289fb0	0.16467166
30	0xbe31ff74	-0.17382604
31	0xbe3c11de	-0.18366191
32	0x3eb28b85	0.3487207
33	0x3e1487a7	0.14504872
34	0x3e7a30cb	0.24432676
35	0xbd1d64e3	-0.03842629
36	0x3e0a7546	0.13521299
37	0x3e21592e	0.15756676
38	0x3d682f1e	0.05668556
39	0xbe0e0fe8	-0.13873255
40	0x3dc20a6b	0.09474643
41	0x3e543c00	0.20726013
42	0x3e3078dc	0.17233604
43	0x3d49bd6f	0.049252924
44	0xbe9e7f85	-0.30956665
45	0xbcf07f53	-0.029357588
46	0x3e86a8c5	0.26300636
47	0xbe950df3	-0.29112205
48	0xbdb25598	-0.08707732
49	0x3ea87d2f	0.32908008
50	0x3e9b94de	0.30387014
51	0xbcfd4ec9	-0.030921357
52	0xbdee6a98	-0.11641425
53	0xbe433cee	-0.19066212
54	0xbdcb2d63	-0.09920766
55	0x3ee5be73	0.44871864
56	0x3def55c7	0.116862826
57	0xbc6f5154	-0.0146067925
58	0x3dca37bd	0.098739125
59	0x3f000001	0.50000006
60	0xbd6ba69b	-0.057531934
61	0x3eb6fe67	0.3574097
62	0xbe5dbc4e	-0.21653864
63	0x3d395450	0.045246422
64	0xbe87cae6	-0.26521987
65	0xbebaf4ae	-0.365148
66	0xbdab03ae	-0.08350311
67	0xbeb8132d	-0.3595213
68	0xbe19aa0a	-0.15006271
69	0x3eda631e	0.42653745
70	0xbe8ddb57	-0.27706406
71	0xbec9ca3a	-0.394121
72	0xbe463d4e	-0.19359323
73	0x3db03b63	0.08605077
74	0xbe91467d	-0.2837409
75	0xbe99735c	-0.29970825
76	0xbc67a319	-0.014138007
77	0xbe2b2713	-0.16714124
78	0xbd414b8a	-0.04719118
79	0x3e085d21	0.13316776
80	0xbe3521ea	-0.17688718
81	0xbe6439db	-0.22287695
82	0x3ea61bcc	0.32443082
83	0xbe2c342f	-0.16816781
84	0xbe76e49c	-0.24110645
85	0xbdb007ba	-0.08595224
86	0xbe90ba11	-0.28266957
87	0xbed11d86	-0.40842837
88	0xbeac3edf	-0.33641717
89	0x3cbb93e3	0.022897666
90	0x3c73cfd4	0.014881093
91	0xbe13a23d	-0.14417358
92	0xbe6439d1	-0.2228768
93	0xbec4a8b9	-0.38409975
94	0x3e02d843	0.1277781
95	0x3e64f260	0.22358084
96	0xbe6ca3b5	-0.23109324
97	0xbdba20a5	-0.09088258
98	0xbf27b786	-0.6551441
99	0xbea4d802	-0.3219605
100	0xbdc67411	-0.09690107
101	0xbe69378c	-0.22775096
102	0xbc82d35a	-0.01596992
103	0xbe80dfea	-0.25170833
104	0xbea7103b	-0.3262957
105	0xbe826abe	-0.25472063
106	0xbeed6455	-0.4636561
107	0x3ddb1cf4	0.10698882
108	0xbe44863a	-0.19191828
109	0xbdf79d2d	-0.12090526
110	0xbe171d43	-0.14757256
111	0xbdf3dca5	-0.11907319
112	0x3ef9b4e5	0.48770824
113	0xbd81fd26	-0.06347112
114	0xbd9a98c1	-0.07548667
115	0xbeac29f4	-0.33625758
116	0xbd2a043d	-0.04150795
117	0xbd384e3e	-0.044996493
118	0xbead4afe	-0.33846277
119	0xbea13602	-0.31486517
120	0x3d818152	0.06323494
121	0xbe1042b9	-0.14087953
122	0xbe90758f	-0.2821469
123	0xbea0b642	-0.31389052
124	0xbe13f34d	-0.1444828
125	0xbf4228a1	-0.75843245
126	0xbe0a2d5d	-0.13493867
127	0x3e0b6b71	0.13615204
128	0xbc5b294d	-0.013376546
129	0x3df0d307	0.11759
130	0xbd9fa2c9	-0.07794721
131	0xbd67a7ca	-0.0565565
132	0xbdb0eec7	-0.08639293
133	0x3d2fbe15	0.042905886
134	0x3e433826	0.19064388
135	0x3e68e704	0.22744375
136	0xbcbcffa6	-0.023071121
137	0x3d81a693	0.063306
138	0x3dbd6bf6	0.092491075
139	0x3d94b5e4	0.072612554
140	0xbe1f6168	-0.15564501
141	0xbdb45454	-0.08805147
142	0xbe2169db	-0.15763037
143	0x3e43c9f3	0.19120006
144	0x3d853fb6	0.065062925
145	0xbdf6645c	-0.12030861
146	0x3e463c91	0.19359042
147	0x3d81f76a	0.063460186
148	0xbda7c6fb	-0.081922494
149	0x3e193685	0.14962204
150	0xbdda04af	-0.106454246
151	0x3dabdb8c	0.083914846
152	0x3da247ae	0.07923828
153	0x3e140432	0.14454725
154	0xbe00b4ec	-0.12569016
155	0xbd82cd01	-0.06386758
156	0xbc3c6cb5	-0.011500527
157	0xbe10ea99	-0.14151992
158	0x3d942118	0.07232875
159	0x3e8bdb19	0.27315596
160	0x3e366dd7	0.17815338
161	0xbdc189cf	-0.09450113
162	0xbcb63d47	-0.022246016
163	0xbdbbd836	-0.09172098
164	0x3e18f899	0.14938582
165	0xbbec8e45	-0.0072191083
166	0xbe09853b	-0.1342973
167	0x3db55177	0.08853429
168	0x3ee02230	0.43776083
169	0x3e4ab189	0.19794287
170	0x3d2a75dd	0.04161631
171	0x3dd07d2a	0.10180123
172	0xbd8b23ba	-0.06793924
173	0xbcc23576	-0.023707133
174	0x3ce39e1e	0.027785357
175	0xbe1dccf9	-0.15410222
176	0xbc552ca5	-0.013011132
177	0xbe3a8ad1	-0.18217017
178	0x3dea03e1	0.11426521
179	0x3ea43baf	0.32076785
180	0x3d9be49c	0.07611963
181	0x3b32374c	0.0027193604
182	0x3de683d9	0.11255617
183	0x3de70dbb	0.11281916
184	0xbd503dac	-0.050840065
185	0xbddb4082	-0.10705663
186	0x3bd777be	0.0065755537
187	0x3e643341	0.22285177
188	0xbd36e378	-0.044650525
189	0x3e059f04	0.13048941
190	0x3eee47b4	0.4653908
191	0x3e1ad63e	0.1512079
192	0x3e7ef89a	0.24899521
193	0x3e89be36	0.26902932
194	0x3e909312	0.28237206
195	0x3ea94bbd	0.33065596
196	0xbded80e1	-0.11596847
197	0x3e03532a	0.12824693
198	0xbc2ea025	-0.010658299
199	0x3e078153	0.13232927
200	0x3e5780f8	0.21045291
201	0x3e0bb975	0.13644965
202	0xbd5d95e4	-0.054098025
203	0x3e847c00	0.25875854
204	0x3e567690	0.20943666
205	0x3eab24ec	0.33426607
206	0x3e1bce3a	0.15215388
207	0x3e52efa7	0.20599233
208	0x3e346b24	0.17618996
209	0x3e37d35a	0.17951718
210	0x3e82efe4	0.25573647
211	0x3de7d5db	0.113200866
212	0x3d97dd4c	0.07415256
213	0x3d30b1c1	0.04313827
214	0x3e044c25	0.12919672
215	0xbdc366fa	-0.095411256
216	0x3e619ca4	0.2203241
217	0x3e217244	0.15766245
218	0x3e3c7dfa	0.18407431
219	0x3dc0f0f2	0.09420957
220	0xb93f46c6	-0.00018241545
221	0x3e314015	0.17309602
222	0x3d503691	0.05083329
223	0xbcd277db	-0.025691917
224	0x3e7bc562	0.24587014
225	0x3eaa911c	0.33313835
226	0x3e9a397a	0.30121976
227	0xbe4da0ad	-0.20080824
228	0xbe175fd6	-0.14782652
229	0x3d9f0d96	0.07766263
230	0x3e072ccd	0.13200684
231	0xbcbc44b2	-0.022981975
232	0xbd170690	-0.036871493
233	0x3ea5af48	0.3236029
234	0x3ea583d5	0.32327142
235	0x3eb69cd4	0.35666525
236	0x3e919b23	0.28438672
237	0x3dbd7bf0	0.09252155
238	0x3e3ac764	0.18240124
239	0x3e216eab	0.15764873
240	0xbd695084	-0.05696155
241	0xbdb4d82e	-0.088302955
242	0x3ef792ee	0.48354286
243	0xbcced491	-0.025247844
244	0x3b3ef8b1	0.002913993
245	0x3e1ef436	0.15522847
246	0x3b3fb367	0.002925122
247	0x3f0277df	0.5096416
248	0xbe148bbb	-0.14506428
249	0x3e7d9ee9	0.2476765
250	0x3e6780a7	0.2260767
251	0x3f277d60	0.6542568
252	0x3e829c1a	0.2550972
253	0x3eaf5f8f	0.34252593
254	0xbd408a4c	-0.04700689
255	0x3e8a761c	0.27043235

rnn.weight_ih_l0_reverse f4 [256, 37]
0	0x3e41f3a3	0.18940596
1	0x3e190e60	0.1494689
2	0x3d9194d5	0.071084656
3	0xbdfea095	-0.12432972
4	0x3d000055	0.031250317
5	0xbea3889f	-0.3194017
6	0xbec76121	-0.3894129
7	0x3e613ddb	0.21996252
8	0x3ef1bc59	0.4721401
9	0xbaaca970	-0.0013173055
10	0xbdf98fb9	-0.12185616
11	0x3deb6bad	0.11495147
12	0x3d4e1780	0.05031538
13	0xbeaecb05	-0.34139267
14	0x3c87c28b	0.016572258
15	0x3eb8a3aa	0.36062366
16	0x3e305eed	0.17223711
17	0x3e2740b4	0.16333276
18	0x3c66a764	0.014077995
19	0x3dc3db93	0.09563365
20	0xbe960269	-0.29298714
21	0x3e9e2e79	0.3089483
22	0x3df9a760	0.121901274
23	0x3db892ad	0.09012351
24	0x3eb38625	0.35063282
25	0xbd94135b	-0.07230254
26	0x3e8b7c6d	0.27243367
27	0xbc24f472	-0.010068046
28	0x3ee1a577	0.44071552
29	0xbc15c68d	-0.0091415765
30	0xbdef120e	-0.116733655
31	0x3e5edcbd	0.21763892
32	0xbfad0b4b	-1.3519071
33	0xbe14eaf6	-0.14542755
34	0x3f3ff755	0.74986774
35	0xbd0580f4	-0.032593682
36	0xbfee85ba	-1.863456
37	0xbe013466	-0.12617645
38	0x3c598669	0.013276675
39	0x3e615064	0.22003323
40	0xbdd92e6b	-0.10604557
41	0x3e1bfe1c	0.15233654
42	0xbd830939	-0.063982435
43	0xbe81ebf3	-0.25375327
44	0xbdfbefd4	-0.12301603
45	0x3dcbf816	0.09959428
46	0xbdc97dfa	-0.09838481
47	0xbe16ffb9	-0.14745988
48	0x3ec0ed22	0.37680918
49	0x3ec2c3cb	0.38040003
50	0xbeaa1543	-0.33219346
51	0x3e1bbc3a	0.15208521
52	0xbeba0f6a	-0.36339885
53	0x3e21de59	0.15807475
54	0x3e155acf	0.14585422
55	0xbe8d3d98	-0.27586055
56	0xbd6537e8	-0.05596152
57	0xbf050f81	-0.5197678
58	0x3dd5cb4a	0.10439165
59	0x3e735482	0.23762706
60	0xbe4a8d52	-0.19780472
61	0x3edd0479	0.43167475
62	0xbea67605	-0.32511917
63	0x3ea3d8f1	0.3200145
64	0xbeb2afa3	-0.34899625
65	0x3e8b7367	0.27236483
66	0xbe017d20	-0.12645388
67	0xbe8ee793	-0.27911052
68	0x3d6f2570	0.058385313
69	0x3fa428dc	1.2824969
70	0xbe844e66	-0.25841063
71	0x3f14de06	0.5815128
72	0xbfbb5976	-1.4636676
73	0x3e80e06f	0.2517123
74	0x3e9b602c	0.3034681
75	0x3ebb2ae7	0.3655617
76	0x3e22cef9	0.15899266
77	0x3ddbd162	0.10733296
78	0x3d903299	0.07040901
79	0xbf10652e	-0.5640439
80	0x3f030f3c	0.5119512
81	0x3e7b2dbc	0.24529165
82	0xbe901f79	-0.28149012
83	0xbeb9c504	-0.36283123
84	0xbea1dcff	-0.3161392
85	0x3e8913cd	0.2677292
86	0xbe4fba4d	-0.20285912
87	0x3ed3c09c	0.41357887
88	0xbf132527	-0.57478565
89	0x3e8a3e33	0.2700058
90	0xbe9ef97e	-0.31049722
91	0xbd7d04e2	-0.061772235
92	0x3e7319cc	0.2374031
93	0x3c7e2f84	0.015514258
94	0x3ee40837	0.44537517
95	0x3e3fee1a	0.18743172
96	0xbe7268b8	-0.2367276
97	0x3cce95a6	0.025217842
98	0xbe8dcfad	-0.27697507
99	0xbf4a20fc	-0.7895658
100	0xbf317f48	-0.6933484
101	0xbded1dd4	-0.11577955
102	0x3e8e2a0a	0.27766448
103	0x3e8d1622	0.27555948
104	0xbea63d0b	-0.32468447
105	0xbe53f1f1	-0.20697762
106	0xbf93166f	-1.1491221
107	0x3df88df5	0.12136451
108	0x3f449b2f	0.7679929
109	0x3fa3520d	1.2759415
110	0xbd209ded	-0.03921311
111	0xbd9871cd	-0.07443581
112	0xbe2525da	-0.1612772
113	0x3b8e5f59	0.0043448624
114	0x3e0d6e02	0.13811496
115	0x3ed00cf2	0.40634876
116	0xbe68ac3e	-0.22721955
117	0xbca66b8e	-0.020314958
118	0x3e4071b3	0.18793373
119	0x3e17c5d6	0.14821562
120	0x3e583245	0.21112926
121	0x3ec184e4	0.377967
122	0xbe2c212b	-0.16809528
123	0xbe35d41f	-0.17756699
124	0x3dbd327e	0.09238146
125	0x3dae29f4	0.08504096
126	0x3e985140	0.2974949
127	0x3e7ad343	0.24494652
128	0x3d828f3e	0.063749775
129	0x3ecc76a6	0.39934272
130	0xbd0a3c06	-0.03374865
131	0xbdda93eb	-0.10672744
132	0xbecb3a0f	-0.39692733
133	0x3e0af87e	0.13571355
134	0xbabe2829	-0.0014507818
135	0xbe4e79e1	-0.2016368
136	0xbc9e56f4	-0.019328572
137	0xbdca1c77	-0.098687105
138	0xbebcb3a8	-0.36855817
139	0x3d6b0874	0.05738111
140	0xbe065146	-0.13116941
141	0x3ba0f0f4	0.0049115364
142	0xbd900448	-0.070320666
143	0x3e6f4447	0.2336589
144	0xbe93e86a	-0.28888255
145	0xbdee6c46	-0.11641745
146	0x3c85e392	0.016343866
147	0x3fffd9a3	1.9988292
148	0x3c9f4e06	0.019446384
149	0xbdad3eaa	-0.08459218
150	0x3a6f55ad	0.0009129893
151	0xbe157fff	-0.14599608
152	0x3e2f6403	0.17127995
153	0x3e123e3c	0.14281553
154	0x3e55a715	0.20864518
155	0xbd3ef728	-0.046622425
156	0xbd74b70a	-0.059744872
157	0x3d1ae98a	0.037820376
158	0xbd2acd35	-0.041699607
159	0x3dd6ef14	0.10494819
160	0x3dadcdc0	0.08486509
161	0x3e09e434	0.13465959
162	0xbbabcb90	-0.0052427724
163	0x3bddf8c3	0.0067740395
164	0x3cac958d	0.021067405
165	0xbda07465	-0.078347005
166	0xbe87a0dd	-0.26489916
167	0xbc2a5b04	-0.010397676
168	0x3b0c7e3f	0.0021437553
169	0xbda6b881	-0.0814066
170	0x3e7f2b0c	0.24918765
171	0xbdc718a7	-0.09721499
172	0xbe874fb9	-0.2642801
173	0x3c006cfb	0.007838483
174	0x3b950587	0.004547778
175	0xbda68a33	-0.08131828
176	0xbc15ca45	-0.009142463
177	0xbd866a9e	-0.06563304
178	0x3cf724d9	0.030168938
179	0xbe5f28e8	-0.21792948
180	0xbe43c4bb	-0.19118015
181	0x3e919284	0.28432095
182	0xbe9bed51	-0.30454496
183	0x3f85797c	1.0427699
184	0x3feaedcb	1.8353819
185	0xbdd72187	-0.10504442
186	0x3d646bbe	0.055766813
187	0x3d82f31f	0.06394028
188	0x3f02f1aa	0.5115
189	0xbd5f6c3f	-0.05454659
190	0xbc224f85	-0.009906654
191	0x3de1d59e	0.11027072
192	0xbea9ddd6	-0.3317706
193	0xbe19ce52	-0.15020111
194	0xbe8b5cc5	-0.27219215
195	0xbe774704	-0.24148184
196	0xbebf2547	-0.37333128
197	0x3c75289b	0.014963294
198	0xbe71560e	-0.23567984
199	0xbddef0eb	-0.10885795
200	0xbdef642d	-0.11689029
201	0x3e4f42b3	0.20240287
202	0xbdf0c2fa	-0.11755939
203	0x3f12f45d	0.5740412
204	0xbe5db79e	-0.21652076
205	0xbeffe4cf	-0.49979255
206	0xbe37b032	-0.17938307
207	0x3cc34c5c	0.023840122
208	0x3dbf0f6b	0.093291126
209	0x3df23a22	0.11827494
210	0xbcf177f3	-0.029476142
211	0x3d8d6170	0.0690335
212	0xbd1740e4	-0.03692712
213	0x3d19ccf4	0.037548974
214	0xbe1c7683	-0.15279584
215	0x398a0c16	0.00026330416
216	0xbe6771ec	-0.22602051
217	0xbe9225fd	-0.28544608
218	0xbf1aba58	-0.6044059
219	0x3ec591c0	0.3858776
220	0x3fde7724	1.7380109
221	0x3ff560d0	1.917017
222	0xbd8feb6b	-0.07027324
223	0xbdbe3bd8	-0.09288758
224	0x3da8db79	0.08244986
225	0x3baf21ac	0.00534459
226	0xbde3da99	-0.111256786
227	0xbe9ff5f9	-0.3124235
228	0x3da8e9dd	0.08247731
229	0x3e046587	0.12929355
230	0xbdf2560d	-0.11832819
231	0x3c29d6df	0.010366171
232	0x3d845f47	0.06463485
233	0xbdd6febf	-0.10497808
234	0xbd05ace3	-0.03263558
235	0x3e361048	0.17779648
236	0x3c21035f	0.009827464
237	0xbe3a3570	-0.18184447
238	0xbe779496	-0.24177775
239	0xbdaae85d	-0.08345101
240	0x3e1c012e	0.15234825
241	0x3e081bf9	0.1329192
242	0x3d6df61d	0.05809604
243	0x3bd10361	0.0063785766
244	0xbc2f3841	-0.010694564
245	0x3e78b4dc	0.24287742
246	0xbe712caf	-0.23552202
247	0x3d91e510	0.07123768
248	0x3e1e814a	0.15479007
249	0xbd63ff6c	-0.05566351
250	0x3d77d4c6	0.06050565
251	0xbe0a966c	-0.13533944
252	0xbdcfd142	-0.10147335
253	0xbdf2c4ea	-0.118539646
254	0x3d9ba2dc	0.07599422
255	0x3f17ef67	0.59349674

rnn.weight_hh_l0_reverse f4 [256, 64]
0	0xbeb91104	-0.36145794
1	0xbe94fc29	-0.29098633
2	0xbeb23a6a	-0.3481019
3	0x3d405c01	0.04696274
4	0xbe0721ba	-0.1319646
5	0xbd1ec7bf	-0.03876471
6	0x3d8677c8	0.06565815
7	0x3e1db938	0.15402687
8	0x3e3e0f9f	0.18560646
9	0x3e181188	0.14850438
10	0xbe818784	-0.25298703
11	0x3e1c0324	0.15235573
12	0x3e1395d7	0.14412628
13	0x3cea0f7a	0.028571833
14	0x3e8c9857	0.27459976
15	0xbe112c21	-0.1417699
16	0xbe81d71b	-0.25359425
17	0xbec8ad79	-0.3919485
18	0x3e7a03a8	0.24415457
19	0x3dee7d24	0.116449624
20	0x3cc6b796	0.024257462
21	0x3c6f31f3	0.014599311
22	0xbe817140	-0.25281715
23	0xbd2854c2	-0.041096456
24	0x3d269841	0.040672544
25	0x3f2c2fbc	0.67260337
26	0xbea8474e	-0.328669
27	0x3f2660b7	0.64991325
28	0xbd533dfe	-0.051572792
29	0xbdc2bca3	-0.09508636
30	0x3e06d272	0.13166216
31	0xbe8f28aa	-0.27960712
32	0x3e7138fa	0.23556891
33	0x3b794ddc	0.0038040793
34	0xbe9184fd	-0.28421775
35	0xbdf46d81	-0.11934949
36	0x3e5ee2cf	0.21766208
37	0xbe1b2ef8	-0.15154636
38	0xbdf3fda6	-0.11913614
39	0x3e175494	0.14778358
40	0x3d945aac	0.07243857
41	0xbeb03017	-0.3441169
42	0x3e08f7b1	0.13375737
43	0xbe5738a4	-0.210177
44	0xbee70b61	-0.4512587
45	0x3e926b84	0.28597653
46	0xbe4013c4	-0.1875754
47	0x3d2bd622	0.04195226
48	0xbc946315	-0.018113652
49	0x3e6236c1	0.220912
50	0xbe9829e2	-0.29719454
51	0xbd8945c2	-0.06702758
52	0xbd90a29d	-0.07062266
53	0x3b7cae72	0.0038556126
54	0x3d169b75	0.03676935
55	0x3e6abd36	0.2292374
56	0x3e925bbc	0.28585613
57	0x3ead184e	0.33807606
58	0x3e87bb49	0.26510075
59	0xbea288c3	-0.31744966
60	0x3e8f3604	0.27970898
61	0xbe63551d	-0.22200437
62	0x3e235c60	0.15953207
63	0x3bc93d87	0.006141368
64	0xbd9c1f75	-0.076231875
65	0xbe436da3	-0.19084792
66	0xb98153c4	-0.00024667208
67	0xbee05ef4	-0.43822443
68	0x3ec1721d	0.37782374
69	0xbd9831d3	-0.07431378
70	0x3e6a86dd	0.22903009
71	0xbea5d6d0	-0.3239045
72	0x3e2e23f7	0.17005907
73	0xbed53511	-0.4164205
74	0x3ec633c1	0.3871136
75	0x3e081008	0.13287365
76	0xbe6a44c8	-0.228778
77	0x3d8201ca	0.063479975
78	0x3ec715de	0.3888387
79	0x3c4145be	0.011796413
80	0xbe18a9db	-0.14908545
81	0xbe3bce9c	-0.18340534
82	0xbe50f315	-0.20405228
83	0xbc5e29ce	-0.013559772
84	0xbdb28b9e	-0.08718036
85	0xbe7b95b9	-0.24568833
86	0x3e33beac	0.17553204
87	0xbdbf37ea	-0.09336837
88	0x3e2b57de	0.16732737
89	0x3e0b3091	0.13592745
90	0xbe3483bf	-0.17628382
91	0x3f017164	0.50563645
92	0x3e8b26b3	0.27177963
93	0x3d88dbfd	0.066825844
94	0xbda506ba	-0.080579236
95	0x3e776e4f	0.24163173
96	0x3f1a3b51	0.6024676
97	0x3d69cd9e	0.057080857
98	0xbe745d31	-0.23863675
99	0x3d95d809	0.07316596
100	0x3e097bc9	0.13426127
101	0x3e78bf39	0.24291696
102	0x3de50b79	0.11183829
103	0xbe3d958a	-0.18514076
104	0xbd845a1a	-0.06462498
105	0x3c09a24d	0.008400512
106	0xbe906b6e	-0.28206962
107	0xbc3f01b5	-0.011658122
108	0xbf4a0c38	-0.78924894
109	0x3da2dd8b	0.07952412
110	0xbe894935	-0.26813665
111	0x3e16b90c	0.14719027
112	0x3e72a770	0.23696685
113	0xbe52151a	-0.20515862
114	0xbdc50cef	-0.096216075
115	0x3e4d4f81	0.2004986
116	0x3cc55e9c	0.024092965
117	0xbd3e908b	-0.046524566
118	0xbea0e004	-0.3142091
119	0xbc6a6a61	-0.014307589
120	0xbebe9c83	-0.37228784
121	0xbcef1e77	-0.029189331
122	0x3f0266a4	0.5093787
123	0xbdd2102d	-0.102569915
124	0x3e6f712d	0.23383017
125	0xbe1fba10	-0.15598321
126	0xbea1329c	-0.31483924
127	0xbc2c081f	-0.010499983
128	0xbe2decda	-0.16984883
129	0x3da63c85	0.08117012
130	0x3eecf559	0.46280935
131	0xbd358899	-0.044319723
132	0x3ec38d9e	0.38193983
133	0xbda879c3	-0.08226349
134	0x3dc53384	0.096289665
135	0x3df05cf1	0.11736477
136	0x3e4c0e18	0.19927251
137	0x3e58868b	0.21145074
138	0xbe54c2f5	-0.20777495
139	0x3d93e0b0	0.0722059
140	0x3de40efb	0.1113567
141	0x3bfbac7e	0.007680475
142	0x3ead23f6	0.338165
143	0x3e4df121	0.20111515
144	0xbc5762d4	-0.013146121
145	0xbe5f2e35	-0.2179497
146	0x3cc44753	0.023959791
147	0xbd881752	-0.06645073
148	0x3d768097	0.060181227
149	0xbefd715b	-0.49500546
150	0xbd32b6d7	-0.0436314
151	0xbe244464	-0.16041714
152	0x3d83c464	0.06433943
153	0x3da77f89	0.08178622
154	0xbe687587	-0.22701083
155	0x3d37abe1	0.04484165
156	0x3da595fe	0.08085249
157	0x3ed1543d	0.4088458
158	0xbdc5b3f3	-0.09653463
159	0x3d533167	0.051560786
160	0xbe19a410	-0.15003991
161	0xbe20be83	-0.15697674
162	0xbe7892a0	-0.24274683
163	0x3db2a5d5	0.08723036
164	0xbccfc618	-0.025363013
165	0xbe170afb	-0.14750282
166	0xbe12f9e2	-0.14353135
167	0xbc69c71c	-0.014268663
168	0x3e17f524	0.14839607
169	0x3e29d6e4	0.1658588
170	0xbbc35a90	-0.0059617236
171	0x3e91bf5e	0.28466314
172	0xbe84b823	-0.25921735
173	0x3c858c1e	0.016302165
174	0xbd6bb998	-0.057550043
175	0x3b3b6f3c	0.0028600236
176	0x3e48e434	0.19618303
177	0xbdaeca7b	-0.08534714
178	0x3e7aa860	0.24478292
179	0xbe28f604	-0.16500098
180	0xbde09b36	-0.10967104
181	0x3ea96a1d	0.3308877
182	0xbc70e813	-0.014703768
183	0xbead2579	-0.33817652
184	0x3e766c8d	0.24064846
185	0x3ec4149a	0.38296968
186	0xbc5533a1	-0.013012798
187	0x3d4116da	0.047140934
188	0x3e83b4cd	0.25723878
189	0x3d3a6dbd	0.04551481
190	0xbd3edb81	-0.046596054
191	0x3e61799f	0.22019051
192	0xbe0343ac	-0.12818784
193	0xbe8f32a6	-0.2796833
194	0x3e8f070a	0.27935058
195	0xbe092ef3	-0.13396816
196	0x3f2b8b36	0.67009294
197	0x3de6702a	0.11251862
198	0x3e810190	0.25196505
199	0xbec9b840	-0.39398384
200	0x3f0c5491	0.5481654
201	0x3e7c1b15	0.24619706
202	0xbe509f4a	-0.20373264
203	0xbd9001d4	-0.07031599
204	0x3e4a900e	0.19781515
205	0x3ecc0e60	0.39854717
206	0xbc5028dd	-0.012705055
207	0xbef84e3e	-0.48497194
208	0x3de55d41	0.111994274
209	0x3ee6a97c	0.4505118
210	0x3e0f5af5	0.13999541
211	0x3e9d6077	0.3073766
212	0x3ebe7e74	0.3720585
213	0x3f235130	0.6379576
214	0xbe121e83	-0.14269452
215	0x3ecc9c27	0.39962885
216	0x3e8131be	0.25233263
217	0x3ea094a9	0.3136342
218	0xbd550351	-0.052005116
219	0x3d52ab2a	0.051432766
220	0x3e0004d3	0.1250184
221	0x3e7adaa8	0.24497473
222	0x3ee5e55d	0.44901553
223	0x3d887f8a	0.06664951
224	0x3f516f24	0.8181021
225	0x3da3b544	0.07993558
226	0xbcedab6d	-0.029012406
227	0xbdfa9998	-0.12236327
228	0x3e13b9ae	0.144263
229	0x3a248e09	0.00062772684
230	0x3d028d2d	0.031872917
231	0xbeb09f6a	-0.34496623
232	0x3cf64e0d	0.030066514
233	0xbe62e882	-0.22159007
234	0xbeb03f07	-0.34423086
235	0xbef33e33	-0.47508392
236	0xbe80ad37	-0.25132152
237	0xbebbf3d0	-0.36709452
238	0x3d74cca3	0.05976547
239	0x3e6dad13	0.23210554
240	0xbd3087fb	-0.04309843
241	0x3bde1dc6	0.0067784516
242	0xbe9f0826	-0.31060904
243	0x3e95389e	0.29144758
244	0x3f84903e	1.0356519
245	0x3e29dc33	0.16587906
246	0x3efc5364	0.49282372
247	0xbe3125c4	-0.17299563
248	0xbe5c46ea	-0.21511427
249	0x3e818f9a	0.25304872
250	0xbd47f107	-0.048813846
251	0xbda68c59	-0.08132238
252	0x3deb332d	0.114843704
253	0xbf051897	-0.51990646
254	0xbeb1d5cb	-0.34733424
255	0xbda52e96	-0.08065526
