checkpoints/baseline_best.pt (torch, 463751 bytes, 6 tensors)

gcn1.bias f4 [128]
0	0x3e266a71	0.16251542
1	0xbe99f495	-0.30069414
2	0xbe0e3067	-0.13885652
3	0xbe54cc02	-0.20780948
4	0xbc88b111	-0.016685994
5	0xbeaa4cba	-0.33261663
6	0xbe1f950d	-0.15584202
7	0xbc5c811b	-0.0134585155
8	0xbc5e0ebc	-0.013553318
9	0xbc19ecc7	-0.009394831
10	0x3ef68e74	0.48155558
11	0x3f353264	0.70780015
12	0xbc81c989	-0.01584317
13	0xbb041e7f	-0.0020159779
14	0x3e886481	0.26639178
15	0xbe871268	-0.2638123
16	0xbeb5b79b	-0.35491642
17	0xbe69db87	-0.2283765
18	0x3f0e7b0e	0.55656517
19	0xbb8dde70	-0.004329495
20	0x3caa1036	0.020759683
21	0x3f1cc270	0.6123419
22	0x3e069f59	0.13146724
23	0xbdf9b178	-0.121920526
24	0xbd80883e	-0.06275986
25	0xbc1bfd84	-0.009520892
26	0xbea943d8	-0.33059573
27	0xbc8454dd	-0.016153747
28	0xbc369e00	-0.011146069
29	0xb90282a5	-0.00012446435
30	0xb7b44cd2	-2.1493444e-05
31	0x3e855a0e	0.2604527
32	0x34aa1abf	3.1684428e-07
33	0xbb13a8b2	-0.002253097
34	0xbd02728c	-0.03184752
35	0x1c0b6fe7	4.613587e-22
36	0xbdfef9eb	-0.12450012
37	0xbc890f40	-0.016730905
38	0xbd039131	-0.032120887
39	0xbe093c27	-0.13401853
40	0xbedd1926	-0.4318325
41	0x3e1c1436	0.15242085
42	0x3e435aa5	0.19077547
43	0xb8eaeb09	-0.00011201768
44	0x208b3aaf	2.358635e-19
45	0xbe40f272	-0.18842486
46	0xbeec811f	-0.46192262
47	0xbe3a913d	-0.18219467
48	0xbe9a8bbd	-0.30184737
49	0x3d14e178	0.036347836
50	0x00024d38	2.11372e-40
51	0xbe20d23b	-0.15705197
52	0xbb64e680	-0.0034927428
53	0xbca4b62e	-0.020106401
54	0xbb678507	-0.0035327093
55	0xbdc512b8	-0.09622711
56	0xbea13d84	-0.31492245
57	0x33a5127e	7.686775e-08
58	0xbd08ed20	-0.033429265
59	0xbb9cd8b8	-0.004786577
60	0xbc49cf34	-0.0123174675
61	0x3d91db62	0.07121922
62	0xbb90d5e5	-0.0044200295
63	0xbea83b9b	-0.32857975
64	0xbc068215	-0.008209725
65	0x800488e3	-4.16448e-40
66	0xbed8532f	-0.42250964
67	0x3e9cfb37	0.30660412
68	0x3e84e46a	0.25955516
69	0x3e15f0af	0.14642595
70	0xbb88145a	-0.0041528167
71	0xbacbbc72	-0.0015543832
72	0x3e437f62	0.19091561
73	0xbd2dfecb	-0.042479318
74	0x3c43b794	0.011945624
75	0x3e9bcff3	0.3043209
76	0xbb93576d	-0.004496506
77	0xbe19a02e	-0.1500251
78	0x3dd7c346	0.10535292
79	0xbeae97b6	-0.3410012
80	0xb4d7c9c5	-4.0193677e-07
81	0xbcac8e3c	-0.021063916
82	0xbcc0e0d6	-0.02354471
83	0x299e6e6b	7.035764e-14
84	0x3ead365a	0.3383053
85	0xbd2a54f9	-0.041584942
86	0xbe656fcb	-0.22405927
87	0xbc52c4f0	-0.012864336
88	0xb8a291e5	-7.751937e-05
89	0xb75ea785	-1.3271235e-05
90	0xbec9debc	-0.39427745
91	0xbc500807	-0.012697226
92	0xbe4c78f8	-0.19968021
93	0xbe806466	-0.25076598
94	0xbe8ec1d2	-0.27882248
95	0xbe818ed1	-0.25304273
96	0xb7b7cbe6	-2.1910248e-05
97	0xbbfa890c	-0.007645732
98	0x3ed87248	0.4227469
99	0xbcb07880	-0.021541834
100	0x17f2e9c9	1.5697899e-24
101	0xbdb306b5	-0.08741514
102	0xbb44db4f	-0.0030037945
103	0xbde144b8	-0.10999435
104	0x3bde298b	0.0067798547
105	0xbbe8f1bd	-0.0071088956
106	0xbc612787	-0.013742334
107	0xbe638f52	-0.22222641
108	0xbb87be87	-0.0041425857
109	0xb866a6d1	-5.4991633e-05
110	0xbc6c0674	-0.014405835
111	0xbec099af	-0.3761725
112	0xbeb4798a	-0.35248977
113	0xbcda0ba3	-0.026616877
114	0xb9f14070	-0.00046015112
115	0xbde24944	-0.110491306
116	0xb6b6184d	-5.4268517e-06
117	0xbe476e0e	-0.19475576
118	0xb3e70059	-1.0756839e-07
119	0xbcb1b805	-0.021694193
120	0xbdbf771a	-0.09348889
121	0xbe3c4fff	-0.18389891
122	0xbbd54633	-0.0065086125
123	0xbea9d5ed	-0.33171025
124	0xbd03b15c	-0.032151565
125	0xbe3682dc	-0.17823356
126	0xbdddf007	-0.10836797
127	0xbe1a68f1	-0.15079094

gcn1.lin.weight f4 [128, 768]
0	0xbe2f85ed	-0.17140932
1	0x3dfaa0f1	0.122377284
2	0x3e3d8ff1	0.1851194
3	0xbf5bb788	-0.8582692
4	0x3dbc42ac	0.09192404
5	0x3e41ca49	0.18924822
6	0xbeb09c0d	-0.34494057
7	0x3cdb1597	0.026743693
8	0x3bf667c6	0.007519695
9	0xbd8ac776	-0.067763254
10	0xbf2f77b7	-0.68542045
11	0xbed154e5	-0.40885082
12	0xbf58457d	-0.8448103
13	0x3d8890ee	0.06668268
14	0x3de116e6	0.10990696
15	0x3ee16e32	0.44029385
16	0xbd2135af	-0.039357837
17	0xbee75ea9	-0.45189407
18	0x3e87ffc5	0.26562324
19	0xbddddfb6	-0.10833685
20	0x3e015e1f	0.1263356
21	0xbe3e208f	-0.18567108
22	0xbf14e3e7	-0.5816025
23	0x3c327ec5	0.010894482
24	0xbe9e09a6	-0.30866736
25	0x3e9908bd	0.2988948
26	0x3d755187	0.059892204
27	0xbf2f2cfe	-0.6842803
28	0x3ea2eabf	0.31819722
29	0x3f088d6f	0.5334081
30	0x3ea8f93a	0.33002645
31	0xbeaac7f5	-0.3335568
32	0xbf3c6f95	-0.7360776
33	0xbe2f3216	-0.1710895
34	0x3f3b009a	0.7304779
35	0xbe2670c1	-0.1625395
36	0x3e8254e5	0.25455394
37	0xbc4cd87e	-0.012502788
38	0x3f42b7e6	0.76061857
39	0xbd52dc39	-0.051479552
40	0x3eb85323	0.36000928
41	0xbcdcc981	-0.026951553
42	0x3f007a81	0.50186926
43	0xbd897675	-0.06712047
44	0x3d0c326b	0.03422777
45	0xbe8d2942	-0.2757054
46	0x3d2886c3	0.041144144
47	0xbe9cd6a3	-0.30632505
48	0x3f37d635	0.7181123
49	0xbf04fb09	-0.5194555
50	0xbf189b16	-0.5961164
51	0x3d4b8f76	0.049697362
52	0x3e4ecf04	0.20196158
53	0x3f3bd56b	0.73372525
54	0xbecbc69e	-0.3979997
55	0xbe7bd2ce	-0.24592134
56	0xbdeed6e6	-0.116620824
57	0x3f11b7b8	0.5692096
58	0xbcf175cc	-0.029475115
59	0xbec59a25	-0.38594165
60	0x3dae6ace	0.08516465
61	0xbec1d24b	-0.37855753
62	0xbe6b99e6	-0.23007926
63	0x3f18855b	0.59578484
64	0xbf240387	-0.6406788
65	0x3eb31a63	0.3498107
66	0xbeb058f9	-0.3444288
67	0x3ea4924f	0.32142875
68	0x3d254ec0	0.040358305
69	0xbe169683	-0.14705853
70	0xbdebe954	-0.11519113
71	0x3e63953a	0.22224894
72	0x3e6886b5	0.22707637
73	0xbd815e00	-0.06316757
74	0x3e98496d	0.2974352
75	0x3e077480	0.13228035
76	0x3ee0cef9	0.43907908
77	0xbd85ae79	-0.06527419
78	0xbd72b879	-0.059257958
79	0x3db8c9fd	0.09022901
80	0x3e1d588c	0.15365809
81	0x3f22b798	0.6356139
82	0xbcb57b82	-0.02215362
83	0xbd4f97f8	-0.050682038
84	0xbea83415	-0.32852235
85	0xbf2aa739	-0.6666141
86	0xbf05d382	-0.5227586
87	0x3ebd67c7	0.36993238
88	0x3e87c254	0.26515448
89	0x3e85d667	0.26140139
90	0x3e08e2de	0.13367793
91	0xbe966dcf	-0.29380652
92	0xbe83b45b	-0.25723538
93	0xbd8547b6	-0.065078184
94	0x3ef38383	0.47561273
95	0x3e6572dd	0.22407098
96	0x3ec410a5	0.3829395
97	0xbe120838	-0.14260948
98	0xbcd5f3c8	-0.02611722
99	0xbf3714cf	-0.71516126
100	0xbde8b5aa	-0.11362775
101	0xbec9de51	-0.39427426
102	0x3f470e17	0.77755874
103	0xbed4b827	-0.41546747
104	0xbeb95d26	-0.3620388
105	0xbe52a7bc	-0.20571798
106	0xbe218b1e	-0.15775725
107	0x3eac62a9	0.33669022
108	0x3f44aa24	0.76822114
109	0xbf137732	-0.5760375
110	0xbdf238df	-0.118272536
111	0x3ed11da8	0.40842938
112	0x3e608258	0.21924722
113	0x3e931990	0.2873044
114	0xbd6f11e1	-0.05836666
115	0xbf2f6501	-0.68513495
116	0xbd880ac0	-0.066426754
117	0x3d20c239	0.039247725
118	0xbf5dbe7c	-0.8661878
119	0xbe75f84f	-0.24020503
120	0x3e017315	0.12641557
121	0x3e6a9563	0.22908549
122	0x3ebe4a38	0.37166
123	0xbede4427	-0.4341137
124	0xbd9cc431	-0.07654608
125	0xbdbdcc38	-0.09267467
126	0xbdb03181	-0.08603192
127	0xbe0c44fe	-0.13698193
128	0xbdd36b76	-0.10323231
129	0xbe865401	-0.26235965
130	0x3f067af1	0.52531344
131	0x3dd2080b	0.1025544
132	0x3e52cc2d	0.205857
133	0x3e302184	0.17200285
134	0xbdfb5f84	-0.122740775
135	0xbd354718	-0.044257253
136	0x3ee1667e	0.44023508
137	0x3dc0906b	0.094025455
138	0x3df6380c	0.12022409
139	0x3e1366da	0.14394704
140	0x3eab2c87	0.3343241
141	0x3ed189da	0.40925485
142	0xbd2c09da	-0.042001583
143	0xbdb4f1bd	-0.088351704
144	0x3db59a65	0.08867339
145	0xbe5d2717	-0.21596943
146	0xbe4df247	-0.20111953
147	0x3f4126a5	0.7544959
148	0x3f04e7bd	0.51916105
149	0xbf3cb5b3	-0.7371475
150	0xbe405e1d	-0.18785901
151	0x3eb273bd	0.34853926
152	0x3efff435	0.49991003
153	0xbdece6aa	-0.11567433
154	0x3e0d2ffa	0.13787833
155	0x3d9e1386	0.077185676
156	0x3e07173e	0.1319246
157	0x3b812ab7	0.0039418596
158	0xbf03d4e9	-0.5149675
159	0xbe964c6c	-0.2935518
160	0x3e452055	0.19250615
161	0x3ed30700	0.41216278
162	0x3e87acf3	0.26499137
163	0x3e096071	0.13415696
164	0x3f12c1fc	0.57327247
165	0x3ebef3e3	0.37295446
166	0x3e46c76e	0.19412014
167	0xbe98f5bd	-0.29874983
168	0xbef63236	-0.48085183
169	0xbdd7413a	-0.10510488
170	0x3e5aeb25	0.21378763
171	0xbd1de4db	-0.03854833
172	0xbe0bcb09	-0.1365167
173	0xbf3caf13	-0.7370464
174	0x3f30d48d	0.69074327
175	0x3db54b88	0.08852297
176	0x3deafee9	0.114744015
177	0x3eeb64e7	0.4597542
178	0x3eb9ee0b	0.36314425
179	0xbf897f73	-1.074202
180	0x3eee8641	0.46586803
181	0x3d97577a	0.07389732
182	0xbe1dcea6	-0.15410861
183	0x3eb69c5b	0.35666165
184	0x3ecb4621	0.39701942
185	0xbebcd668	-0.3688233
186	0xbe6b4499	-0.22975387
187	0xbec0c12a	-0.37647372
188	0xbe89cbe1	-0.2691336
189	0x3eac479b	0.3364838
190	0x3e8bf912	0.27338463
191	0x3e080471	0.13282944
192	0xbe304761	-0.17214729
193	0x3d5f179c	0.054465875
194	0x3e2cd81d	0.16879316
195	0xbc4c7f5f	-0.0124815395
196	0x3f26e73a	0.65196574
197	0x3f10a1cf	0.564969
198	0x3eba1fcf	0.36352393
199	0x3d17a42c	0.0370218
200	0xbe1eb450	-0.15498471
201	0x3ec9d4a0	0.39420033
202	0xbed9bcfa	-0.4252699
203	0xbe6b035e	-0.22950503
204	0xbf06af53	-0.52611274
205	0x3ec5201a	0.38501054
206	0x3f4413da	0.7659279
207	0x3def02e8	0.11670476
208	0xbe8a9bac	-0.27071893
209	0x3f01f677	0.507667
210	0xbc86b385	-0.016443023
211	0xbdfb3231	-0.122654326
212	0xbd7ca51c	-0.061680898
213	0xbdcec11e	-0.10095428
214	0x3e123ae1	0.14280273
215	0x3e31d33d	0.17365737
216	0xbdf02326	-0.11725454
217	0xbd8daa00	-0.069171906
218	0xbef9ea1c	-0.48811424
219	0xbe2f5f49	-0.17126192
220	0x3d2295a6	0.039693497
221	0x3f36d312	0.7141582
222	0xbdf06446	-0.11737876
223	0x3e808bf8	0.25106788
224	0x3e66719d	0.22504278
225	0xbcef0b7a	-0.029180277
226	0x3da9f1fa	0.082981065
227	0x3e2e1fdc	0.17004341
228	0x3cc26122	0.023727957
229	0x3d952ea6	0.07284288
230	0xbec49ac1	-0.38399318
231	0x3eaa60aa	0.33276874
232	0xbed30a84	-0.4121896
233	0x3dfc9b1e	0.12334274
234	0x3e208c10	0.1567843
235	0x3f1157fe	0.5677489
236	0xbdeb8196	-0.11499326
237	0x3e3e045e	0.18556353
238	0xbf1f2bf9	-0.6217647
239	0x3f07da51	0.530675
240	0x3dc3b976	0.09556858
241	0x3da554b7	0.08072799
242	0xbdbbcc2c	-0.09169802
243	0x3e7886a5	0.24270113
244	0x3c88ac02	0.016683582
245	0x3e0807ed	0.13284273
246	0x3c0c7f98	0.008575343
247	0xbf1d03b5	-0.6133378
248	0xbdab3048	-0.08358818
249	0x3f19637d	0.5991743
250	0x3db35174	0.0875577
251	0x3cdb903d	0.026802177
252	0xbed22532	-0.41044003
253	0xbddc6d13	-0.10762992
254	0x3f027a06	0.50967443
255	0x3ee6030b	0.44924197

gcn2.bias f4 [128]
0	0xbe4371a5	-0.1908632
1	0xbdf4fe89	-0.11962611
2	0xbd363f6f	-0.04449409
3	0xbd7dc965	-0.061959643
4	0x3e139611	0.14412715
5	0xbe2fe10a	-0.1717569
6	0x3d965932	0.073412314
7	0xbdce8e24	-0.10085705
8	0xbe52b7fd	-0.20577998
9	0xbde84ffd	-0.113433816
10	0xbdf615f1	-0.12015904
11	0x3e501493	0.20320348
12	0x3d1834e6	0.037159823
13	0xbe5d24a2	-0.21596006
14	0x3dd7e91f	0.10542511
15	0xbe2f352e	-0.1711013
16	0x3c325404	0.010884289
17	0x3c007903	0.007841351
18	0x3db545e0	0.08851218
19	0x3dcbddc2	0.09954406
20	0x3d43c00b	0.04779057
21	0xbd9d4d2c	-0.07680735
22	0x3d214a28	0.03937736
23	0x3da8142b	0.08206972
24	0x3d323528	0.043507725
25	0x3c046ff3	0.008083331
26	0xbde031f5	-0.109470285
27	0xbd309466	-0.043110274
28	0x3e3adcdc	0.18248314
29	0x3d720d1b	0.05909453
30	0x3d8e00ea	0.06933768
31	0x3e0cf227	0.13764249
32	0x3d503a43	0.050836813
33	0x3c8ce187	0.017197384
34	0x3d2a89f0	0.041635454
35	0xbcfce62d	-0.030871475
36	0xbd00513e	-0.03132748
37	0x3ddb8ccb	0.107202135
38	0xbe28b0b2	-0.16473654
39	0x3b2fe92d	0.0026841864
40	0xbca4d740	-0.02012217
41	0xbdca9804	-0.09892276
42	0x3c895ff0	0.01676938
43	0xbd0faa58	-0.03507456
44	0x3e3125b4	0.17299539
45	0xbe6546ca	-0.22390285
46	0x3c8a634b	0.01689305
47	0xbe1da98b	-0.15396707
48	0x3d1ea2b3	0.03872938
49	0x3ce52c47	0.027975215
50	0xba1afe05	-0.00059124856
51	0xbe04cf28	-0.12969649
52	0xbcbd14be	-0.02308118
53	0x3e0e9821	0.1392522
54	0x3dbc8d27	0.0920661
55	0xbe7c7997	-0.24655758
56	0x3cb17672	0.021662924
57	0xbc253e51	-0.010085658
58	0x3e2e717d	0.1703548
59	0xbe035fcc	-0.12829512
60	0x3db792ea	0.089635685
61	0x3c87f035	0.016594032
62	0xbd348137	-0.04406854
63	0xbcdddee6	-0.027083825
64	0xbe0f0199	-0.13965453
65	0xbe1281c0	-0.14307308
66	0xbe1c675c	-0.15273803
67	0x3dd33f8b	0.10314854
68	0xbd825221	-0.06363321
69	0x3d728076	0.05920454
70	0x3cc5715e	0.02410191
71	0xbc922b25	-0.017842839
72	0x3d81ec61	0.06343914
73	0x3d8a8b1a	0.06764813
74	0xbd4e98e0	-0.05043876
75	0x3d11108e	0.03541618
76	0x3de245b5	0.11048452
77	0xbd0ee23c	-0.034883723
78	0x3d4d7ff3	0.05017085
79	0xbd0692eb	-0.032854956
80	0xbd02fb2d	-0.03197782
81	0x3bce7691	0.0063007553
82	0xbca04c5f	-0.019567667
83	0xbde3133e	-0.110876545
84	0x3c563c46	0.013075894
85	0xbd47d5da	-0.04878793
86	0xbc561fce	-0.013069106
87	0xbe14d6cc	-0.14535064
88	0x3dee404b	0.11633357
89	0x3af141bf	0.0018406435
90	0xbd2c31ba	-0.04203961
91	0x3d4473e7	0.047962096
92	0xbd410141	-0.047120336
93	0xbc522ab5	-0.012827565
94	0xbe3cc493	-0.18434362
95	0x3dfd6faf	0.123748176
96	0xbdb3e239	-0.08783383
97	0x3cde3511	0.027124913
98	0xbd40d8b1	-0.047081653
99	0xbcb4535f	-0.02201241
100	0xbc691975	-0.014227261
101	0xb9db90ed	-0.00041878913
102	0x3b18163e	0.0023206617
103	0xbba26a09	-0.004956488
104	0x3d6448e5	0.05573358
105	0xbd94007d	-0.07226656
106	0xbd561ba9	-0.052272473
107	0xbdfd5392	-0.123694554
108	0xbc50cbbc	-0.012743887
109	0x3c741516	0.014897605
110	0xbd1dbbc8	-0.03850916
111	0x3dc54cd3	0.09633794
112	0x3d5eb8ab	0.05437533
113	0xbdd6779c	-0.104720324
114	0x3e1ac2bb	0.15113346
115	0x3da1e8e3	0.07905748
116	0xbe129393	-0.14314108
117	0x3da51cb9	0.08062119
118	0x3e10b7bf	0.14132594
119	0x3d8bede8	0.068324864
120	0x3d61c716	0.055121504
121	0x3f0c1076	0.5471262
122	0x3e1d570c	0.15365237
123	0xbe67d69d	-0.22640462
124	0xbc8458ae	-0.016155567
125	0x3e53cd46	0.20683774
126	0x3dd246a9	0.102673836
127	0xbdd0b9c7	-0.10191684

gcn2.lin.weight f4 [128, 128]
0	0xbe16fb18	-0.14744222
1	0xbe30acce	-0.1725342
2	0x3dc2630b	0.09491547
3	0x3cb48043	0.022033816
4	0x3c672f71	0.014110432
5	0xbca408c8	-0.020023718
6	0x3db23368	0.08701211
7	0xb9a4786f	-0.00031370248
8	0x3c29ff7e	0.0103758555
9	0x3d1c974a	0.038230218
10	0x3d8a0229	0.06738693
11	0x3df7470b	0.12074097
12	0x3aafed80	0.0013422221
13	0xb262f65d	-1.3210948e-08
14	0x3d3b069a	0.045660593
15	0x3d374aab	0.044748943
16	0xbc24e585	-0.010064487
17	0xbd006587	-0.031346824
18	0x3d4983ad	0.04919784
19	0x3b13ceb9	0.0022553636
20	0x3e023995	0.12717278
21	0xbd20569a	-0.03914509
22	0xbe05c1a3	-0.13062148
23	0x3dd7c19f	0.10534977
24	0xbdc928d0	-0.098222375
25	0x3c8c240d	0.017107034
26	0xbbafb9b2	-0.005362713
27	0xba91ff03	-0.0011138621
28	0xb4c06b84	-3.5841015e-07
29	0xbb1a1f51	-0.0023517201
30	0xa26da7b0	-3.2208262e-18
31	0x3e28f6b8	0.16500366
32	0x328acaed	1.6157594e-08
33	0x3a02b826	0.00049865467
34	0x3c0a0e23	0.008426222
35	0x8001dbbb	-1.7066e-40
36	0xbd1eba61	-0.038751964
37	0xbc339d22	-0.010962756
38	0xbc09d73b	-0.008413131
39	0xbd7cf3f0	-0.061756074
40	0xbd7f90de	-0.062394015
41	0xbe146de9	-0.14495052
42	0xbd622b59	-0.05521712
43	0x320a1866	8.038205e-09
44	0xb31c7995	-3.643216e-08
45	0x3dc5169e	0.096234545
46	0x3da54a1b	0.08070775
47	0x3e1ee492	0.1551688
48	0xbda8b8c8	-0.08238369
49	0xbe26db90	-0.16294694
50	0x059a49ef	1.450925e-35
51	0x3dcd6d6e	0.10030638
52	0x356a0768	8.718257e-07
53	0x3df98140	0.121828556
54	0xbd8a7350	-0.06760275
55	0xbd2655fa	-0.040609337
56	0xbe653837	-0.22384726
57	0xb754ebf0	-1.2691118e-05
58	0xbbac9af3	-0.005267495
59	0x379916d2	1.8249648e-05
60	0xbda9ad51	-0.082850106
61	0xbd3a36d5	-0.04546245
62	0xbcc495de	-0.023997243
63	0x3c8098bb	0.015697828
64	0x3b94f9de	0.004546388
65	0x000d82c5	1.240773e-39
66	0x3d802969	0.06257898
67	0xbe116d5e	-0.14201877
68	0xbd3aa6bc	-0.045569167
69	0xbcf751fa	-0.030190457
70	0x380ac09c	3.3081145e-05
71	0xbb71c812	-0.0036892933
72	0x3be9c947	0.00713459
73	0x3c9f787a	0.019466627
74	0x3c0f26ae	0.008737249
75	0x3d27d9c7	0.040979173
76	0x3a923030	0.0011153277
77	0x3c84dcd5	0.016218582
78	0x3cc9c355	0.024629274
79	0xbdaec5bb	-0.08533808
80	0x1fda70c5	9.251315e-20
81	0x3a8b7900	0.0010640919
82	0xbc31a9ea	-0.010843733
83	0xacd06c66	-5.92375e-12
84	0xbdd597c8	-0.104293406
85	0x3de5b990	0.11217034
86	0x3d9ebbd6	0.077506706
87	0xbc8dbc77	-0.017301781
88	0xa9054cfb	-2.9598702e-14
89	0xb8a5516f	-7.882981e-05
90	0x3d084a1e	0.03327381
91	0x3b8da88f	0.0043230723
92	0x3dd81a29	0.10551865
93	0x3bf89fde	0.007587417
94	0xbda48c02	-0.08034517
95	0x3cb3de70	0.021956652
96	0xb358cc6a	-5.0477333e-08
97	0x3d0c420f	0.034242686
98	0xbd8c379b	-0.068465434
99	0xb33a677e	-4.3400625e-08
100	0x1410fe7b	7.3203295e-27
101	0x3d88535a	0.06656523
102	0xbd22f2ae	-0.03978222
103	0x3bcb45ab	0.0062033734
104	0x3d0e6b37	0.034770217
105	0xbcb1ae59	-0.02168958
106	0xbaafc35f	-0.0013409666
107	0xbc9ed8db	-0.019390514
108	0xb847dc4b	-4.765046e-05
109	0xb967e81e	-0.00022116347
110	0xbd940633	-0.07227745
111	0x3cee74ee	0.02910849
112	0x3d84c414	0.064827114
113	0xbb946061	-0.004528091
114	0xbb3471d5	-0.002753367
115	0x3d400fb2	0.04688997
116	0xb838dfc8	-4.407743e-05
117	0x3d51e9ec	0.051248476
118	0x332d2f01	4.032245e-08
119	0xbcab59d3	-0.020916855
120	0x3d57afe8	0.05265799
121	0x3aaaccee	0.0013031045
122	0x3a21a59d	0.0006166341
123	0xbdfc13c3	-0.12308457
124	0xbd0c1a57	-0.034204807
125	0xbe806dfc	-0.2508391
126	0xbca2ac11	-0.019857438
127	0x3d312c55	0.04325517
128	0x3d345dd1	0.044034783
129	0xbde0c038	-0.10974163
130	0xbc9c390d	-0.019070173
131	0x3a82f145	0.0009990117
132	0x3c62e257	0.013847909
133	0xbdb7cc4d	-0.08974514
134	0x3e1c5134	0.15265352
135	0x37089a0e	8.1421e-06
136	0x3cdab823	0.026699131
137	0xbc13d7eb	-0.009023647
138	0x3dd585e6	0.1042593
139	0x3dc39559	0.0954997
140	0x3c17471e	0.009233264
141	0xa6858b32	-9.266458e-16
142	0x3c84ee99	0.016227053
143	0x3de82017	0.11334246
144	0xbd20a28b	-0.039217513
145	0x3d0af3b4	0.03392382
146	0x3d924585	0.07142166
147	0x3c903a18	0.017605826
148	0xbd09d26f	-0.03364795
149	0xbdb8dd07	-0.090265326
150	0xbb1e2aaf	-0.0024134328
151	0x3db611db	0.088901244
152	0xbd9c8aac	-0.07643637
153	0x3d6d4790	0.057929575
154	0x3c254497	0.010087154
155	0x3c8863e6	0.016649198
156	0x369503b0	4.4409753e-06
157	0xbb78e07e	-0.0037975605
158	0xa1c7b3c8	-1.3532352e-18
159	0xbd477fc9	-0.04870585
160	0x374b1f64	1.2107052e-05
161	0x3ab8792b	0.0014074197
162	0xbb6eac66	-0.0036418675
163	0x80030803	-2.7838e-40
164	0x3ca5f0de	0.020256456
165	0xbbcfd96f	-0.006343059
166	0x3bfa9ca8	0.0076480694
167	0x3d81cf30	0.06338346
168	0x3d9bbce0	0.076043844
169	0x3d7e7b32	0.062129207
170	0x3b9c9f4f	0.0047797333
171	0x36a3a0ae	4.876484e-06
172	0xafc83743	-3.6419054e-10
173	0xbb31e5f8	-0.0027145129
174	0x3da4a3f1	0.08039082
175	0x3d8c27da	0.068435386
176	0xbd50bd24	-0.05096163
177	0xbe47b597	-0.19502865
178	0x04a093b4	3.7751463e-36
179	0x3cdbeca5	0.02684624
180	0x3c86a93b	0.016438117
181	0xbcf845d2	-0.03030673
182	0xbcad48a9	-0.021152811
183	0xbaf73489	-0.0018860261
184	0x3a82f9d3	0.0009992666
185	0xb704556d	-7.887703e-06
186	0xbd1d1a41	-0.038355116
187	0x39c2d68b	0.0003716241
188	0x3d8cf425	0.068825044
189	0x3d885532	0.06656875
190	0xbc62781a	-0.01382258
191	0xbde6c9a8	-0.112689316
192	0xb92395dc	-0.00015600718
193	0x0000fb29	9.0099e-41
194	0x3dc3f08d	0.09567366
195	0xbc88cd47	-0.016699446
196	0x3c3c72d6	0.011501988
197	0xbce7691f	-0.028248368
198	0xb96a87b6	-0.00022366535
199	0xbbcbb255	-0.006216327
200	0x3dc922f5	0.09821121
201	0xbbcb4302	-0.0062030563
202	0xbce14fc4	-0.027503856
203	0xbd8a2f91	-0.06747354
204	0x3cad4792	0.021152291
205	0xbbfa2fef	-0.0076351087
206	0xbdf2a010	-0.11846936
207	0x3cbe51ea	0.023232419
208	0x1fffe69e	1.08378225e-19
209	0x3c4f72d2	0.012661653
210	0xbda2cc99	-0.0794918
211	0x15a3b30e	6.6117674e-26
212	0xbe39851f	-0.18117188
213	0x3d410a48	0.047128946
214	0x3da046fa	0.07826038
215	0xbcf56b8d	-0.02995851
216	0x3044e8aa	7.163502e-10
217	0xb9ffeb63	-0.00048812767
218	0xbe03e9ee	-0.12882206
219	0x3d337be3	0.04381932
220	0xbd2ef7ff	-0.042716976
221	0xbca2329a	-0.01979952
222	0xbe45785f	-0.19284199
223	0x3cedb5a2	0.029017273
224	0x258410ce	2.2909737e-16
225	0xbd0f84c0	-0.03503871
226	0x3c909d38	0.017653093
227	0xb6d7748e	-6.421068e-06
228	0x13f7878d	6.248523e-27
229	0xbd8bc478	-0.06824583
230	0x3cf5d407	0.03000833
231	0x3dc7e6fa	0.09760852
232	0xbc743366	-0.0149048325
233	0x3cb8be3f	0.022551654
234	0xbc8d219f	-0.017227946
235	0xbd3466d3	-0.044043373
236	0xb8ad4fd7	-8.264154e-05
237	0x33668a73	5.3676967e-08
238	0xbd8b5140	-0.068026066
239	0x3b67dfc6	0.0035381182
240	0x3d917df4	0.07104102
241	0xbc25bdb2	-0.010116028
242	0xbb59b3db	-0.0033218774
243	0xbd5ad2fa	-0.05342386
244	0xb76eb339	-1.4227634e-05
245	0xbe0461d4	-0.12927943
246	0xb3de0e19	-1.0340245e-07
247	0xbbf0e83a	-0.0073519023
248	0x3df7165a	0.1206481
249	0xbc6ec962	-0.014574381
250	0x3c32a8a3	0.010904464
251	0xbdb1479d	-0.08656237
252	0xbdb12c96	-0.08651082
253	0x3cd90d3e	0.026495572
254	0x3d14161b	0.036153894
255	0xbc76a25e	-0.01505336

classifier.weight f4 [3, 128]
0	0x3d38eba4	0.0451466
1	0x3c839730	0.016063303
2	0x3c925c2c	0.017866217
3	0x3c9d65fe	0.019213673
4	0x3a97f323	0.0011592846
5	0x3cdd74ab	0.02703317
6	0xbd2a7b5f	-0.041621562
7	0x3d3a4a30	0.045480907
8	0x3c4356f4	0.011922587
9	0x3d021573	0.031758737
10	0x3d33bd3a	0.043881632
11	0x3c48c215	0.012253304
12	0xbcfe47d8	-0.031040117
13	0x3b1f152c	0.0024274094
14	0xbcdeb368	-0.027185157
15	0xbce354f5	-0.027750472
16	0xbc387423	-0.011258158
17	0x3cd867fd	0.026416773
18	0xbc0f723c	-0.008755263
19	0xbd62080b	-0.05518345
20	0x3b330820	0.0027318075
21	0x3d9b3ab8	0.07579559
22	0xbd7be428	-0.061496884
23	0xbcacd33d	-0.02109682
24	0xbd045db0	-0.03231591
25	0xbd2ba746	-0.04190757
26	0x3ceb93f3	0.028757071
27	0x3d082c64	0.03324546
28	0x3d70e691	0.058813635
29	0xbd6ffea2	-0.058592446
30	0x3c29dadf	0.010367124
31	0xbd5822ab	-0.052767437
32	0xbdc09466	-0.09403305
33	0x3d601459	0.054706905
34	0xbd6411f9	-0.055681203
35	0xbcc5a01a	-0.024124194
36	0xbcc3cdc3	-0.023901826
37	0x3c94f2ca	0.018182177
38	0xbd222189	-0.039582763
39	0xbcfbce90	-0.030738145
40	0x3d33260d	0.04373746
41	0x3cf19770	0.029491156
42	0x3c4bf4ed	0.012448532
43	0x3bf16228	0.0073664375
44	0xbdb2de33	-0.087337874
45	0x3cede07c	0.029037707
46	0x3c82184d	0.015880728
47	0x3d3879b4	0.04503794
48	0x3ce694d6	0.028147142
49	0xbc1da4b0	-0.009621784
50	0x3d1e41cd	0.03863697
51	0x3e02de41	0.12780096
52	0x3d2711b6	0.040788375
53	0x3d43f883	0.04784442
54	0x3ddf2c7c	0.108971566
55	0xbd1680f8	-0.036744088
56	0x3e2bff8a	0.16796699
57	0xbd9410ba	-0.07229753
58	0xbd99f6e2	-0.07517792
59	0x3bac1e13	0.0052526086
60	0x3a2c207e	0.0006566121
61	0x3c879ef5	0.016555289
62	0x3cb38fa2	0.021919075
63	0x3cb4600e	0.022018459
64	0xbce14c40	-0.02750218
65	0xbd7c1086	-0.061539195
66	0x3d84cc79	0.064843126
67	0x3d22ad61	0.03971613
68	0xbc20e421	-0.009820015
69	0x3da9d4aa	0.082925156
70	0xbd296e98	-0.041365236
71	0x3cdc9a69	0.026929097
72	0x3d131e5d	0.03591763
73	0x3d0e4408	0.03473285
74	0x3d240b8e	0.040050082
75	0x3e3474a0	0.17622614
76	0x3dd81928	0.10551673
77	0xbd859f09	-0.06524474
78	0xbd1cc2e8	-0.038271815
79	0xbc8f3c97	-0.017484946
80	0xbbce2bf9	-0.006291863
81	0x3d4a89f7	0.04944798
82	0x3b09ccb5	0.0021026556
83	0x3b215258	0.002461573
84	0xbd80be86	-0.062863395
85	0xbd3b3f8b	-0.045714896
86	0x3cd5a815	0.026081124
87	0xbd965df6	-0.073421404
88	0x3bd5894c	0.006516611
89	0xbd0ac7f4	-0.033882096
90	0xbc99d3b4	-0.018777706
91	0x3b790e25	0.0038002816
92	0x3d92cb97	0.07167738
93	0x3d7e733b	0.06212161
94	0xbe1b4907	-0.15164576
95	0x3ce6f426	0.02819259
96	0x3d0ea932	0.034829326
97	0xbd42a811	-0.047523562
98	0xbd3cb5b0	-0.04607171
99	0xbd851b76	-0.064993784
100	0xbd8ddf21	-0.06927324
101	0xbd63aef3	-0.055586766
102	0xbdcbb999	-0.09947509
103	0x3d0d2162	0.034455664
104	0xbdebbe15	-0.11510865
105	0xbcc0d919	-0.02354102
106	0xbbf733f3	-0.0075440346
107	0x3cd0b992	0.025479112
108	0xbd221051	-0.03956634
109	0x3de28a14	0.110614926
110	0xbd8c9b2c	-0.06865534
111	0x3ce7c4f9	0.028292166
112	0xbaa25636	-0.0012385312
113	0x3d0f0f3d	0.03492664
114	0xbcb79bfb	-0.022413244
115	0xbf01707f	-0.5056228
116	0x3d93ddb2	0.072200194
117	0x3c6a0d33	0.0142853735
118	0xbcc63f93	-0.024200236
119	0x3ca7702b	0.020439228
120	0xbd2e0793	-0.042487692
121	0x3dd0b6d9	0.101911254
122	0x3bfbf979	0.0076896516
123	0x3dc7681d	0.09736655
124	0xbc8d5e9c	-0.017257027
125	0x3cfca986	0.030842554
126	0xbd27d319	-0.040972803
127	0x3d2654de	0.04060828
128	0x3c439b7c	0.011938926
129	0xbb3d67f2	-0.0028901068
130	0x3cdf14a0	0.027231514
131	0x3cd8e1f8	0.026474938
132	0x3bd86ad6	0.0066045327
133	0xbdab503d	-0.083649136
134	0xbd47148a	-0.048603572
135	0x3c0c4e8d	0.00856365
136	0xb9758ded	-0.00023417892
137	0x3cd2807b	0.02569603
138	0xbc3cc25e	-0.01152095
139	0x3d80e3e8	0.0629347
140	0xbd496af7	-0.049174275
141	0xbcf58b05	-0.029973516
142	0xbcc49486	-0.023996603
143	0xbcc1390f	-0.023586778
144	0xbcadd05f	-0.021217523
145	0x3d1e39ca	0.03862933
146	0xbb3f8f9c	-0.0029229885
147	0xbd1b22ce	-0.03787499
148	0x3c40e32a	0.01177291
149	0x3d34af68	0.044112593
150	0xbd43e6f0	-0.04782766
151	0x3c01418c	0.007889163
152	0xbd0055b5	-0.031331737
153	0xbdaa339b	-0.08310624
154	0x39c363ba	0.000372676
155	0x3d75cba6	0.060008667
156	0x3d8a395d	0.067492224
157	0xbd6c2677	-0.05765387
158	0x3da6e679	0.08149428
159	0xbd884188	-0.06653124
160	0xbd846f4f	-0.06466543
161	0x3d9260fe	0.07147406
162	0xbd38cb12	-0.045115538
163	0xbd870925	-0.06593541
164	0xbc25cf60	-0.010120243
165	0x3cbe81ac	0.023255192
166	0xbdaaf586	-0.08347611
167	0x3baec3ae	0.0053333854
168	0x3d7b5a62	0.061365493
169	0x3daf9a99	0.08574409
170	0x3d6345e6	0.055486582
171	0x3cc31e3c	0.023818128
172	0xbd161340	-0.036639452
173	0x3d4dbf7f	0.050231453
174	0xbca171fc	-0.019707672
175	0x3c9b69ee	0.01897141
176	0x3d530f31	0.05152816
177	0xbca34ee8	-0.019935086
178	0x3c66d0ec	0.014087897
179	0x3e0b7ae7	0.13621102
180	0x3d39942d	0.045307327
181	0x3d5888bb	0.05286477
182	0x3e067489	0.13130392
183	0xbd4f674d	-0.050635625
184	0x3e4e8299	0.20167007
185	0xbd92499f	-0.07142948
186	0xbcdda1df	-0.027054725
187	0x3bac5815	0.0052595236
188	0xbc17ef6a	-0.009273389
189	0x3cdae98f	0.026722698
190	0x3d1623cf	0.036655243
191	0x3d0d96f9	0.034567807
192	0xbcb230cd	-0.021751786
193	0xbd9e2fd9	-0.0772397
194	0x3db38c07	0.087669425
195	0x3d53090b	0.051522296
196	0x3b6449c4	0.0034834007
197	0x3dc5ffbc	0.09667918
198	0xbdc0836b	-0.09400066
199	0xbd24dea1	-0.040251378
200	0x3d614452	0.054996796
201	0x3d42648f	0.04745918
202	0x3da3aa8e	0.07991515
203	0x3e4f1f14	0.20226699
204	0x3ddc3d1a	0.10753842
205	0xbd15d2d4	-0.036578014
206	0x3c6d11eb	0.014469604
207	0xbc3ad62c	-0.011403602
208	0x3baae5f5	0.0052154013
209	0x3de9f4f6	0.11423676
210	0xbae41702	-0.0017401876
211	0xbd293113	-0.041306566
212	0xbc9a2037	-0.01881419
213	0xbd8e7247	-0.069553904
214	0x3d28afa1	0.041183118
215	0xbda5407f	-0.08068942
216	0x3ac95302	0.0015359821
217	0xbc90ed1d	-0.01769119
218	0xbd0b71b0	-0.034043968
219	0x3bd62b31	0.0065359105
220	0x3d01235c	0.031527862
221	0x3d86ac78	0.065758646
222	0xbf287417	-0.6580214
223	0x3cf26689	0.029589908
224	0x3dbb4a44	0.091450244
225	0xbd6ab1bf	-0.057298418
226	0xbd71f962	-0.05907572
227	0xbd996c0d	-0.07491312
228	0xbd913972	-0.07091035
229	0xbc829995	-0.015942374
230	0xbd945dfd	-0.07244489
231	0x3b91c456	0.004448454
232	0xbde4dfe5	-0.11175517
233	0xbd034ab3	-0.03205366
234	0xbd38c158	-0.045106262
235	0x3a61e1fa	0.0008616742
236	0xbcbeaac1	-0.023274781
237	0x3d934fcc	0.071929544
238	0xbd610d54	-0.05494435
239	0x3d854391	0.06507028
240	0xbc5eb20b	-0.013592253
241	0xbd88bac4	-0.06676248
242	0xbc347b97	-0.011015794
243	0x3b1e079b	0.002411342
244	0x3d49c36c	0.049258634
245	0x3d81a72d	0.063307144
246	0xbceae0fc	-0.028671734
247	0x3b069e01	0.0020540955
248	0x3d53c7ec	0.051704332
249	0x3e00a356	0.12562308
250	0xbc1a7cc1	-0.009429158
251	0x3d840e3e	0.06448029
252	0xbd04fc0b	-0.03246693
253	0x3c2dfb6b	0.010619025
254	0xbc55a5e8	-0.013040043
255	0x3d0c2a9e	0.03422033

classifier.bias f4 [3]
0	0xbe38b3e4	-0.18037373
1	0xbea53c06	-0.32272357
2	0x3e2872ce	0.16450045
