checkpoints/semeval2014_baseline_best.pt (torch, 463911 bytes, 6 tensors)

gcn1.bias f4 [128]
000000 2a 37 34 bb 0f ff 5c b8 d8 4a cf bd c9 42 7f bd
       -0.00274987 -5.268963e-05 -0.10121697 -0.06231955
000010 27 a0 04 be 6f 0d 36 3c 10 c2 7b bd e6 14 66 bd
       -0.12951718 0.011111601 -0.06146437 -0.056172274
000020 fc 1e e8 bb 80 8e 91 bc 5a ab 2a be d5 df 5a bd
       -0.0070837718 -0.017768145 -0.16666928 -0.05343612
000030 97 f4 bd bc a2 92 0d bd 3a a5 c7 bc 0a 75 4b bb
       -0.023187919 -0.034563668 -0.024370778 -0.0031045103
000040 2d 5b 16 be 8d de 02 be 6d a6 63 3d 91 80 13 bc
       -0.14683218 -0.12780209 0.055578638 -0.009002821
000050 1f 0b cf bd c9 bc 41 bd 8c c1 4c 3c a3 29 10 bd
       -0.10109543 -0.04729918 0.012497317 -0.035195958
000060 5c a4 fe bc 3e dc 52 a0 ad 03 a4 3c 0a f3 af bd
       -0.031084232 -1.7860564e-19 0.020021284 -0.08591278
000070 4a eb 05 26 52 e7 96 bd 88 ba 79 3d 07 de 5f bd
       4.646252e-16 -0.073683396 0.060968906 -0.0546551
000080 0d 3b 2d b8 2b 33 a0 bd 00 c0 b3 bc 85 3c 32 bb
       -4.130141e-05 -0.078222595 -0.021942139 -0.0027196717
000090 1f bb 42 bd d9 72 d5 39 3b db 56 bb 31 c0 9e bd
       -0.047541734 0.00040712094 -0.003278448 -0.07751501
0000a0 fc be 3e 11 b9 18 d8 bd 1b 00 4c bd 2b a7 41 3c
       1.5047209e-28 -0.105515905 -0.049804788 0.011819641
0000b0 0b 6e 4a bc b6 b7 11 bd 04 72 84 bc f3 45 3b bc
       -0.012355338 -0.03557559 -0.016167648 -0.011430251
0000c0 2f e5 f0 bd 52 88 0b bd 40 da 87 bd e5 69 8c bd
       -0.11762463 -0.034065552 -0.06633425 -0.06856135
0000d0 d8 0f d0 bd 40 73 59 bd 63 e8 69 b5 90 96 08 bc
       -0.10159272 -0.053088427 -8.713743e-07 -0.008336678
0000e0 9b 25 80 bc 2d 5a 9a bc f0 88 ce bc 27 4b f9 bb
       -0.015642932 -0.018841827 -0.025211781 -0.007607836
0000f0 d8 37 09 be 4f 72 b3 bd 1f 61 a4 bd 9a 9e 7c bd
       -0.13400209 -0.08762037 -0.08026337 -0.06167469
000100 9c 0c b8 bb ee 09 0e b1 5f b6 83 3d 6b 5a ae bc
       -0.0056167375 -2.0669364e-09 0.06431269 -0.021283349
000110 e7 fc b8 bd dd 3e 14 32 34 c2 4a b1 f7 c9 35 bc
       -0.09032612 8.629027e-09 -2.950526e-09 -0.011095515
000120 ba 95 c0 3d 72 e0 14 bc 62 ae 0b be 0d 31 70 3d
       0.09403558 -0.009086715 -0.1364074 0.05864053
000130 3c c2 3a bd 4d 20 12 bd 36 ec 38 3d be 65 b6 bc
       -0.045595393 -0.035675336 0.045147143 -0.022265311
000140 9d 8d e6 bc bf 66 1e bc 2b 48 ba ba 0a 7c 18 3b
       -0.028143698 -0.009668051 -0.0014212182 0.0023267292
000150 c8 43 9b bc 91 be d8 bc cf 5e 21 bd 09 2e 1a be
       -0.018953219 -0.026458057 -0.039397057 -0.15056624
000160 d4 63 7b bd dd 06 c9 bc 03 e2 d8 bc b2 a3 c9 bd
       -0.0613745 -0.024539405 -0.026474958 -0.098456755
000170 41 61 ee bc 7c c2 22 bd 96 49 9b b1 f9 0a b5 bd
       -0.029099109 -0.039736256 -4.5194595e-09 -0.088399835
000180 a1 a5 6c bd 08 81 44 bd 71 87 24 b9 92 ef 1c bd
       -0.057775144 -0.047974616 -0.00015690715 -0.03831441
000190 2b 2a 34 bd 2c d2 63 ba 74 68 a2 bb 24 89 15 08
       -0.043985527 -0.0008690681 -0.0049562994 4.4999265e-34
0001a0 d7 f2 80 bd a0 a7 3a bd 00 ed e4 bc 8d da 41 3d
       -0.06296318 -0.045570016 -0.027945042 0.047327567
0001b0 18 d8 11 be 96 f5 da bd b8 b7 73 bd da 3e 8a bc
       -0.1424259 -0.10691373 -0.05950138 -0.016875673
0001c0 99 99 20 bb a3 d1 0c bb 98 22 51 bd da 7c ba 3d
       -0.0024505614 -0.0021487258 -0.05105838 0.09105845
0001d0 cb 73 d4 bb 55 c5 ad bd 9b cb ed bc 0a 8d a9 bd
       -0.00648353 -0.08484904 -0.02902775 -0.08278854
0001e0 aa 0c 8e 3c 56 2e 14 be 54 18 fe bd 09 cb a1 bc
       0.017340023 -0.14470801 -0.12406984 -0.019750135
0001f0 57 50 55 bd 40 de ed b6 56 ee 71 3d cf 66 9a bc
       -0.05207857 -7.0890237e-06 0.059065185 -0.018847851

gcn1.lin.weight f4 [128, 768]
000000 d3 6f b9 bd b9 39 55 3e da ae 17 3e 7c a0 5c 3d
       -0.09054532 0.208228 0.14812794 0.053863987
000010 6f 4b ed be c1 cf c4 3e bd 12 21 3e 19 9b b6 bd
       -0.46346614 0.38439754 0.15729804 -0.08916301
000020 fa a5 95 be 3a b8 80 3e 5e ff 83 3e c9 c1 26 3e
       -0.29228193 0.25140554 0.25780767 0.1628486
000030 78 89 12 be 7b 17 80 3d e7 09 3b 3e c9 9f b9 be
       -0.14310253 0.062544785 0.18265496 -0.3625472
000040 f1 05 ce bb d9 27 ff bd 30 c8 3f 3e a6 a9 16 be
       -0.0062873294 -0.12458772 0.18728709 -0.14713153
000050 83 58 01 3e 18 1d 8b 3e db d1 5a be 16 e6 22 be
       0.12631421 0.27170634 -0.21369116 -0.15908083
000060 df a5 d2 3c 24 92 f3 bc e6 04 7a bd a0 31 8a be
       0.02571386 -0.029732771 -0.061039828 -0.26990986
000070 8f c0 9c 3e 66 7c 92 3e 97 86 8d 3d 55 45 81 3d
       0.3061566 0.28610533 0.069104366 0.06312052
000080 ac 15 98 3d ef c1 33 bd 9f 4d ae be b8 fa 52 be
       0.074260086 -0.04388612 -0.34043595 -0.20603454
000090 0d 03 32 3d 89 52 97 be 95 b2 e9 bd 9b 6c 56 bd
       0.04345994 -0.29555157 -0.11411015 -0.052349668
0000a0 dc a9 8e bc 43 4c 4f 3d 17 f3 37 be c7 4c 8d 3e
       -0.01741498 0.05060984 -0.17963825 0.2759764
0000b0 9e ba d2 bd d0 e9 8a 3d 77 a3 35 bc 51 a5 a4 3e
       -0.10289501 0.067828774 -0.011086336 0.32157376
0000c0 29 08 de 3e 39 93 27 bd d2 29 67 3d b2 19 e5 3e
       0.433656 -0.040911887 0.056436367 0.44746166
0000d0 26 57 45 ba 7b 9d 5c 3e 52 e1 ea 3c c3 43 a6 bd
       -0.000752794 0.21544449 0.028671894 -0.08118393
0000e0 a6 62 65 3d e9 f3 cb 3d 58 32 09 3d de af b4 3d
       0.05600228 0.099586315 0.033495277 0.088226065
0000f0 26 ab 96 be 92 dd 87 bd 91 a9 a4 3e 41 9b b8 bc
       -0.2942745 -0.06634058 0.3216062 -0.022534968
000100 f7 8c 2d 3e f9 31 35 bc a0 28 41 be 33 d0 9d 3d
       0.16948305 -0.011059278 -0.18863153 0.077057265
000110 a8 d8 95 3c 07 1b bc 3d ea 16 8d 3d bc 85 1e be
       0.018291786 0.091848426 0.06889136 -0.15480703
000120 65 6b ae 3c 34 ec b5 3e 35 35 80 be ad 03 ec be
       0.021291444 0.3553177 -0.25040594 -0.46096554
000130 a4 5a 79 be e8 d7 23 be 5d 57 47 bd 56 9a 80 bd
       -0.24350983 -0.1600033 -0.0486673 -0.06279437
000140 e7 20 db bd b2 0b 12 3e ba 3b 86 be bf be 0d bd
       -0.10699635 0.14262274 -0.26217443 -0.034605738
000150 d8 a4 ba bc b5 72 84 be a1 31 3b bc 66 5c c7 be
       -0.022783682 -0.25868765 -0.011425407 -0.38937682
000160 89 70 ef bd d3 e0 de bd d9 aa e5 bd 04 c4 69 be
       -0.11691386 -0.108827256 -0.11214227 -0.2282868
000170 15 0b 62 3d 60 27 cd 3e d2 90 c3 bd 25 4d e0 be
       0.05518635 0.40069103 -0.09549107 -0.43808857
000180 56 52 7f be b5 dc 05 bf 64 8b 8b be 8f 2a 06 bd
       -0.24933752 -0.522899 -0.27254784 -0.03275543
000190 0a c9 41 3e b6 5a dd bd f2 d5 b0 bc 3a 19 d8 bd
       0.18924347 -0.10808317 -0.021586392 -0.105516866
0001a0 b1 7a d0 bc 8f 14 80 be 57 25 d9 3d a2 64 b9 3d
       -0.025449129 -0.25015685 0.10602825 0.09052397
0001b0 8b 59 7a 3e 3e f4 86 be 69 5d 8a 3e 91 b7 03 3f
       0.2444822 -0.26358217 0.2702439 0.51451975
0001c0 d4 9a 0b be 6a 2d 99 bd 0a c8 be 3d 03 e4 94 bc
       -0.13633281 -0.07479365 0.09315498 -0.01817513
0001d0 b9 8d 62 bd b1 3d 64 3e 98 a0 13 3d e2 7b 34 3b
       -0.05531094 0.22289158 0.036041826 0.002753966
0001e0 56 7d e1 3e 19 34 2b be 84 ee bc 3e e1 60 48 bd
       0.44040936 -0.16719092 0.36900723 -0.048920516
0001f0 8b 11 b7 bc 40 14 ac be 15 20 35 3e f0 79 0d bc
       -0.022347232 -0.336092 0.1768802 -0.008635029
000200 02 5e e0 bd f8 0e 71 3e 85 45 99 be f0 36 b0 3d
       -0.109554306 0.23540866 -0.29935852 0.086042285
000210 2a bc cf be 10 ba 90 be 8a 3b 6e be 64 7e 78 3d
       -0.40573245 -0.28266954 -0.232649 0.06066741
000220 85 ee d6 3d 33 16 bc 3d 2a 25 ce bc 46 e3 86 3d
       0.10494713 0.09183922 -0.025164206 0.06586318
000230 60 0c 89 3d 80 1c f1 be 3a e2 08 be 74 a0 4f 3e
       0.066918135 -0.47092056 -0.13367549 0.20276052
000240 9e 79 fe 3d 5b 90 72 3d 25 9d e3 bd 69 0d a6 bb
       0.124255404 0.0592197 -0.11113957 -0.0050675166
000250 3b 83 bc 3a 45 aa 21 3d f8 1f b7 3d 89 b0 38 be
       0.0014382371 0.039469022 0.089416444 -0.18036093
000260 f1 55 3b 3e bf dd 2d bd 00 b4 5b be b2 bf 77 3b
       0.18294503 -0.0424478 -0.21455383 0.0037803468
000270 f5 24 3f 3d dc dd c5 3d 82 b1 af 3e 41 4f b1 3e
       0.046666104 0.09661457 0.34315115 0.34630778
000280 46 73 a1 be 50 91 44 be 97 bb 22 3d 8e 23 82 3d
       -0.3153326 -0.19196057 0.03972968 0.06354438
000290 d2 d8 28 be fc 69 3c bd c1 d0 96 3d 62 24 60 be
       -0.1648896 -0.045999512 0.073640354 -0.21888879
0002a0 21 87 36 be 55 da af 3d 2a a9 ff 3e e9 a1 af be
       -0.17824985 0.085865654 0.4993375 -0.34303215
0002b0 3c ec 8e bd cd 09 6b 3e a3 ee 02 bd 76 38 17 be
       -0.06978652 0.22952957 -0.031965863 -0.14767632
0002c0 86 b1 89 3d ea 16 c4 be fd c3 45 be 29 1f a5 3d
       0.06723313 -0.38298732 -0.19313045 0.08062584
0002d0 b3 37 34 bc 4e aa d1 3d fb ed 34 3d 27 87 37 be
       -0.010999608 0.10237561 0.04417227 -0.1792265
0002e0 e8 88 d5 bd cb 96 5d bc 5c 73 a0 3a 73 0d 9a 3d
       -0.104265034 -0.013524721 0.0012241411 0.075220965
0002f0 ad d2 83 3e f0 c9 15 bb 7c 0b f2 3d 4f 4b 51 3e
       0.2574667 -0.002285596 0.11818597 0.20438884
000300 a1 94 b9 3e 70 2c b6 3e 4c fe dd 3d e7 fc fc 3d
       0.36246207 0.35580778 0.10839519 0.12352925
000310 ea 59 89 3e 57 14 84 be 5e af 35 be 4f 06 69 bd
       0.2682641 -0.25796768 -0.17742679 -0.056890782
000320 da f7 25 bd 67 2c ec bc c2 66 d2 3d 39 87 2a bd
       -0.040519573 -0.028829766 0.10273506 -0.041632865
000330 3d 25 cd 3e 12 f3 64 3e 2e 30 98 be ae 20 75 3e
       0.40067473 0.22358349 -0.29724258 0.23938248
000340 f1 91 89 be 13 c1 25 3c 76 b4 54 3e 65 12 27 3e
       -0.26869157 0.010116833 0.20771965 0.1631561
000350 f9 6b 09 3d 7d 70 d1 3d 71 49 73 3e 49 f7 8d be
       0.033550236 0.102265336 0.23758484 -0.27727726
000360 63 71 89 be ab 00 7e 3e 41 bb bf 3d 23 81 9d 3d
       -0.2684432 0.24804942 0.09361888 0.076906465
000370 e1 6e dd 3d 1e 0a ea bd 60 f6 9f bd cf 9b 04 bd
       0.10812164 -0.11427711 -0.07810664 -0.032375153
000380 41 d8 c6 3d 7a af 4c 3d 75 fd 21 be ee 15 a2 be
       0.09709216 0.049972035 -0.15819342 -0.31657356
000390 50 70 5a 3e 2f 7d a9 bd 98 93 3a be fa fe 8a 3d
       0.21331906 -0.0827583 -0.18220365 0.06786914
0003a0 be 4a 04 3d 26 3b 33 3e e0 8d 5d 3e b6 69 8e be
       0.032297842 0.17503032 0.21636152 -0.27815026
0003b0 2d 05 61 3e 50 fe 9a 3e 16 2c 1b 3e 28 d7 8b 3e
       0.2197463 0.3027215 0.15153536 0.2731259
0003c0 da 08 8f be 5f c1 b9 3e 04 82 02 3e 4e f4 b4 bc
       -0.2793644 0.36280343 0.1274491 -0.02208915
0003d0 b1 1a 05 bc a0 f3 6f bd 47 fb 33 3e 29 81 60 bd
       -0.0081240395 -0.05858195 0.17576323 -0.054810677
0003e0 a7 ee 98 be ca d2 dc 3c 79 82 94 bc 76 b9 4b be
       -0.29869577 0.02695598 -0.01812862 -0.19894966
0003f0 44 d8 f4 3d a8 f2 89 3e e0 27 de be 96 50 4b 3e
       0.11955312 0.26942945 -0.43389797 0.1985496

gcn2.bias f4 [128]
000000 18 3e 51 bd 74 88 20 3c 93 0b cd 3d 71 c4 01 be
       -0.051084608 0.009798158 0.10011973 -0.12672593
000010 26 8f 50 bc b1 b5 3e 3d 8e cd 09 bd 5b df 67 be
       -0.012729442 0.046559993 -0.033643298 -0.22643797
000020 e7 d3 13 be 86 8c bb bd 32 d3 1f 3e 54 23 5c bd
       -0.14436303 -0.09157662 0.15607908 -0.05374463
000030 db fd f5 bd 39 bb 7b bc e7 68 90 3b c0 d2 4b bd
       -0.1201131 -0.015364462 0.0044070366 -0.049761534
000040 f7 37 29 3d 53 ef 95 3d ed 1d b9 bd c5 61 bb 3d
       0.041313138 0.07321038 -0.09038911 0.091495074
000050 a9 90 25 3e 2e 06 ad 3d 1c af e8 bd 57 9c 71 bd
       0.16168465 0.08448444 -0.113615245 -0.058986988
000060 ed 97 a0 3d 15 e5 1a be 69 83 6a 3d ec 8b 1e 3e
       0.078414775 -0.1512645 0.05725423 0.15483063
000070 3e 22 a0 3c 3e 17 d5 bd f1 b3 47 3d 92 82 32 be
       0.019547578 -0.10404824 0.04875559 -0.17432621
000080 5c a9 46 bd 07 fb 13 3e 98 d3 61 3e 62 94 8d bd
       -0.048501357 0.14451228 0.22053373 -0.069130674
000090 9f a1 32 bd ec 24 49 3d 2c ac b5 3b 9e f8 b3 bd
       -0.043611165 0.049107477 0.005544206 -0.08787654
0000a0 61 4c 06 be 1e 89 c1 bb e1 a2 2d 3d 66 60 32 bc
       -0.13115074 -0.005906238 0.04239166 -0.010887241
0000b0 72 8c 5a be b5 fe cb 3d a3 5e e0 3d 42 04 a2 bd
       -0.21342638 0.09960691 0.109555505 -0.07910968
0000c0 20 b4 04 3d 43 43 36 3d 16 1f 20 bd f6 9c 0b 3e
       0.032398343 0.04449774 -0.039092146 0.13634095
0000d0 51 69 27 be d7 56 1f 3e 7c a5 b4 3d 45 78 c9 3d
       -0.16348769 0.1556047 0.08820626 0.09837393
0000e0 0d 3c f2 3d ac 9f 92 3d af a7 c8 bd 17 50 1f 3e
       0.1182786 0.07159361 -0.09797608 0.15557896
0000f0 3d ac 59 bc 60 e6 53 3c 92 4a 0e be 92 4e 1a 3e
       -0.013285694 0.012933344 -0.13895634 0.15069035
000100 b7 b0 dc bd 9c a3 87 3c 80 63 bc bc b3 fa 0a be
       -0.10775893 0.016557507 -0.022996664 -0.13572197
000110 c6 92 a6 bd 89 da 55 3d d2 38 9f 3d 91 ad 31 be
       -0.081334636 0.052210364 0.077745095 -0.17351367
000120 1c 0b b2 3d 5a fd f0 bd ed a5 4c bd 1b 3b 41 3e
       0.08693525 -0.11767073 -0.049962927 0.18870203
000130 4a 19 f9 bd f6 19 e7 3d 27 19 ec bd 6c 70 f8 bc
       -0.12163027 0.112842485 -0.11528235 -0.030327044
000140 66 28 e2 3d 21 21 ad bd 1b fc f3 bd ce 5a 0b bd
       0.11042862 -0.084535845 -0.1191332 -0.034022145
000150 91 d1 a3 3d 7f 84 ea 3d 7f cc 3e be b6 00 8a ba
       0.07998956 0.11451053 -0.18632697 -0.0010528776
000160 31 e9 6f bd 4e bd 6d 3d 35 8b 3a 3e d5 5c fe bd
       -0.058571998 0.058041863 0.18217166 -0.1242005
000170 4a 21 04 bd cf a0 38 3e 39 39 0b be ce 2e 89 bd
       -0.03225831 0.18030094 -0.13596047 -0.066983804
000180 a2 86 3f 3d 4b 67 ed 3d a8 60 21 3d d5 01 13 bc
       0.046759255 0.11591967 0.03939882 -0.008972605
000190 7e 50 79 bd d5 ab 71 bd d7 e2 14 be 16 cf 20 be
       -0.06086778 -0.059001762 -0.14539658 -0.15703997
0001a0 df 4e 1d bb 5d cb 98 3d b0 e9 93 bd f8 82 43 be
       -0.002400331 0.074606635 -0.07222307 -0.1909293
0001b0 e2 59 27 bd 00 78 0b be 6a bd 58 bb 3d d7 ef 3d
       -0.040857203 -0.13619995 -0.0033071884 0.11710975
0001c0 07 bb 0c be 2b b4 0b be bb fa 88 bd 51 fa d4 3d
       -0.1374322 -0.13642947 -0.06688448 0.103993066
0001d0 4f 10 54 3c 78 1c 34 be 2b 49 3a be c4 b3 52 3d
       0.012943341 -0.17588985 -0.18191974 0.05144097
0001e0 dd a4 74 bd 0f f6 13 3d 07 16 e8 bd 3a 67 43 be
       -0.05972754 0.03612333 -0.113323264 -0.19082347
0001f0 ef 49 09 3e 98 76 03 be ea 7f 68 be 66 62 65 bd
       0.1340711 -0.12838209 -0.22705045 -0.056002043

gcn2.lin.weight f4 [128, 128]
000000 b6 bf f3 bd dd a1 94 3a d6 b8 ae 3e 64 d6 ff be
       -0.119018 0.0011339743 0.34125394 -0.49968255
000010 83 d5 2a 3e e5 ad d0 3e 07 99 c8 be 42 ac 3a be
       0.16683011 0.4075767 -0.3917925 -0.18229774
000020 7a cb 4e 3d 1d 9e b0 39 27 b7 93 3d 0e 66 d1 be
       0.05048702 0.0003368714 0.07212668 -0.40898174
000030 00 a9 df 3c e6 11 89 be cb 64 a7 3b 2c 98 80 b5
       0.027302265 -0.26771468 0.005108451 -9.581031e-07
000040 5e 4f 98 3d 93 82 7d be be df 86 3e e4 c6 c0 bc
       0.07437013 -0.24756841 0.26342577 -0.023532338
000050 29 33 76 3c bc 87 c2 3c cf d2 d0 3e f2 fa 3d bd
       0.015026846 0.023746364 0.40785834 -0.0463819
000060 e3 de ca 3c a9 c8 a6 1f 4c af 22 3e ef 64 96 3d
       0.024764484 7.06357e-20 0.15887183 0.0734347
000070 b3 45 38 2a 00 dc 9a be bc 23 b6 be 9e 0d 47 bc
       1.6366665e-13 -0.30245972 -0.35574138 -0.012149243
000080 f0 08 1f ba ea af c0 3d 33 fc b2 3e 51 de 88 3a
       -0.00060667004 0.09408553 0.34958038 0.0010442232
000090 8d e1 94 be c1 b8 f2 3d b3 f8 bd 3a 80 06 0f be
       -0.29078332 0.11851645 0.0014493674 -0.13967323
0000a0 51 2a cd 93 bf f8 76 3d 1c 83 69 bd 83 e4 22 bd
       -5.1791003e-27 0.060295817 -0.0570098 -0.039768707
0000b0 44 b1 29 39 28 be 82 bc a4 63 bd bb 03 de f2 3e
       0.00016183133 -0.015959814 -0.0057797004 0.47435006
0000c0 82 e1 9d 3e 66 89 e6 3a 78 4a a8 be 65 a3 ef bd
       0.3083611 0.0017588555 -0.32869315 -0.11701087
0000d0 ac b9 a0 3e 4e c4 20 3e 0c a6 4b b8 b0 d0 bf 39
       0.31391656 0.15699884 -4.8553615e-05 0.00036585843
0000e0 38 39 da 3b 5b 22 dc bc 5d 7f 38 3b 33 5b ed 3d
       0.006659653 -0.02687185 0.0028152086 0.115896605
0000f0 1e 44 b3 be 07 5c ad 3e a1 af 95 3c e7 8c a8 3e
       -0.35012907 0.33859274 0.018272223 0.3292
000100 b6 e3 e7 b6 6e f4 70 2e e6 97 6e 3e 0f c2 5d bc
       -6.9108455e-06 5.478678e-11 0.23300132 -0.013535037
000110 be 1a d6 be bd 2b f4 37 40 70 a5 2d 14 c1 88 bc
       -0.41817278 2.9107434e-05 1.8808177e-11 -0.01669363
000120 80 44 5a 3e ba 07 3a 3d 83 a3 2c 3e 32 10 d0 3e
       0.21315193 0.045417525 0.1685925 0.40637356
000130 dc 00 bd 3e 12 42 5d 3d 20 a8 1b 3e de d3 b0 be
       0.36914718 0.054018088 0.15200853 -0.34536642
000140 8e ff 93 3d c2 ff f2 bc 15 d6 90 b9 f5 89 c9 be
       0.072264776 -0.02966297 -0.00027625324 -0.39363065
000150 50 c9 b1 3e f9 88 55 3b c6 80 91 3e 7a d3 c6 bd
       0.34723902 0.0032582863 0.2841856 -0.09708305
000160 9a 9f d6 be 70 15 f3 bc f0 8a e3 3c 39 e0 1c be
       -0.4191864 -0.029673308 0.027776212 -0.15319909
000170 ea 26 83 3c e8 9b 07 3e fb ae 1e 36 d9 95 cc 3d
       0.016009767 0.13243067 2.3645687e-06 0.09989519
000180 ce e6 6d 3e c7 f6 c0 3e 55 c8 24 3b e7 f3 e3 3d
       0.23232576 0.37688276 0.0025143821 0.11130505
000190 cc 0e 28 3c 4e 65 5e bc 0b a4 03 bc bd a3 d9 8e
       0.010257434 -0.013573958 -0.008034716 -5.3652304e-30
0001a0 15 d6 9e bd cf ab 83 be e0 ab ac 3c 5d a3 ca 3c
       -0.07755677 -0.25717017 0.02107805 0.0247361
0001b0 c0 fc 5e be bc 2a 82 be f2 b6 f7 3d e0 40 5b 3c
       -0.21776104 -0.2542323 0.12095441 0.013382167
0001c0 17 b5 e6 3c 25 72 57 3e f3 73 c8 3d bb f6 b3 3e
       0.028162522 0.21039636 0.097877406 0.35149178
0001d0 21 b3 87 bd ef 7d 78 3e 41 21 ab 3e 30 73 83 3c
       -0.06625963 0.2426679 0.33423808 0.016046137
0001e0 bb 77 18 bc 9d 7e 8b 3d a0 a2 af 3e ac ec 18 3d
       -0.00930589 0.06811259 0.3430376 0.037335083
0001f0 aa d0 2b 3e 21 fa ed bb 29 6c f1 bc 6f ab 10 3c
       0.16778818 -0.0072624837 -0.02947052 0.008829935
000200 30 b1 14 bd 36 7a ce 38 40 09 bd 3e b5 34 14 be
       -0.03630179 9.845609e-05 0.3692112 -0.14473231
000210 73 31 97 bc ea 9c 9c 3d 2a 9d 24 3e 84 07 31 bd
       -0.018456196 0.076471165 0.16075578 -0.043220058
000220 cd d5 02 be 95 45 40 bc 97 9b 27 3d 43 5b 12 be
       -0.12776871 -0.01173534 0.040919866 -0.14292626
000230 95 7f 83 3c c4 dd 17 bd aa 12 14 bb f6 6c 8b b9
       0.016052047 -0.037076727 -0.0022594132 -0.00026593328
000240 47 0d 87 bd 67 01 63 3d b4 5d 0e bd 4c 17 0f bc
       -0.06594329 0.05542126 -0.03475733 -0.008733582
000250 9e d3 35 bd 62 55 2e 3c a6 b9 1f 3e b1 7a 62 3d
       -0.044391267 0.010640474 0.15598163 0.05529279
000260 65 28 86 3c df 6e 66 1c 01 a7 72 3d 56 5c 88 3c
       0.016376683 7.6243914e-22 0.0592413 0.016645592
000270 ae d9 d4 13 fd c0 01 3e 63 73 45 be 10 76 99 3d
       5.3730973e-27 0.12671275 -0.19282298 0.07493222
000280 05 f7 b0 38 dd 1e f0 3d bf a3 81 bc 53 c4 30 bb
       8.438345e-05 0.11724637 -0.01582515 -0.0026972487
000290 c7 c8 e1 bd 20 08 41 3e dc 80 b8 b7 8d 48 9b 3c
       -0.11024623 0.18850756 -2.1994514e-05 0.018955493
0002a0 5e 43 ea 13 d6 19 bc bd 65 f1 29 3d 4c 5e 56 bc
       5.9136334e-27 -0.09184615 0.041489977 -0.013084006
0002b0 58 b9 b1 3b ed 47 33 3c 66 7f 91 bc 1b 0b 15 be
       0.005423706 0.010942441 -0.017760944 -0.14555018
0002c0 a7 b7 47 3e b8 61 c0 ba 63 f9 c6 bd 48 6b 93 3e
       0.19503652 -0.001467756 -0.097155355 0.28792787
0002d0 3c c9 83 3d 24 15 c7 bd db dc a3 30 ac 2a 1a ba
       0.06434867 -0.09720829 1.1922582e-09 -0.00058809924
0002e0 dc a7 ab bc 0b 97 0e bd a6 ad 09 3a a4 65 10 3e
       -0.020954065 -0.034812015 0.0005252011 0.14101273
0002f0 9d 7f 4b bd b4 ec 47 be f5 9a 33 bd 83 e3 5f bd
       -0.04968225 -0.19523889 -0.04384895 -0.05466033
000300 3b be b0 89 a5 a9 79 99 6f 60 02 3c e8 12 9e ba
       -4.254935e-33 -1.2907258e-23 0.007957562 -0.0012060078
000310 c5 c1 a9 bd ba 46 bd 20 50 f0 5c 2c 4f 17 81 bd
       -0.08288912 3.2064648e-19 3.139728e-12 -0.06303274
000320 87 5a 6a 3e 87 e4 5c 3b 46 5a d0 bd 7a 3f f9 3d
       0.22886096 0.003370555 -0.10173468 0.1217031
000330 eb 66 53 be 95 51 42 ba 30 ed d3 bd 77 30 7e 3d
       -0.20644729 -0.00074126694 -0.10347974 0.06205794
000340 a4 16 97 3d 3b f0 cc bd 88 d5 55 38 e9 1d 02 3d
       0.07377365 -0.10006758 5.0982024e-05 0.031766806
000350 41 cc 65 3e d1 27 20 3b df 32 a8 3c ec b3 56 3d
       0.22441198 0.0024437795 0.02053207 0.05241768
000360 29 e1 c1 bd 14 11 15 39 84 00 7c bc 1e 8f 28 be
       -0.09466774 0.0001421611 -0.015380982 -0.16460845
000370 b9 0c 55 bc 5a d7 a2 bb 1b 4b 1f 2b 60 a3 ec bd
       -0.013003522 -0.0049695196 5.6592377e-13 -0.11554599
000380 6d 22 7b be f6 82 3f 3e 27 d7 15 36 d1 f4 6d 3d
       -0.24524851 0.18702301 2.2327965e-06 0.058094803
000390 4f fa 95 bc 1d e0 65 b8 32 a2 2b bc 95 bf 10 88
       -0.018307833 -5.4806576e-05 -0.010475682 -4.3558627e-34
0003a0 e8 b7 6c 3e cd 92 5e be 34 a2 19 bd ae 4f be bd
       0.2311703 -0.21735688 -0.037508205 -0.092925414
0003b0 3f 9c ed 3d 24 37 43 bd be e4 dd 3d ba 55 0c 3a
       0.11602067 -0.047660008 0.10834645 0.00053533504
0003c0 bf 12 fe bc 88 94 3c 3c b6 ff 89 3d 66 87 98 3b
       -0.031014798 0.011510022 0.06738226 0.0046548126
0003d0 a1 8c 0c bd ef 15 c0 ba 79 5f 91 be 01 4e 03 3d
       -0.0343138 -0.0014654974 -0.28393152 0.032056812
0003e0 fb 08 e6 bc 89 88 dc bc 29 63 8e 3c e9 91 86 bc
       -0.028080454 -0.026920574 0.017381268 -0.016426997
0003f0 5e e3 14 bc 9e ed 9d 2e 9d 70 61 3e e3 5a e4 3c
       -0.009087412 7.181743e-11 0.22015615 0.02787537

classifier.weight f4 [3, 128]
000000 0a 52 e4 3d 76 9c b7 3c 0b 0b ba 3b e7 b2 dd 3d
       0.1114846 0.022413474 0.005677586 0.108251385
000010 33 04 c3 3d 40 ab 50 3d 99 c4 92 ba 8e 92 3a 3d
       0.09522285 0.050944567 -0.0011197507 0.04554992
000020 e2 c4 1d 3e 9a c5 af 3d 97 ab 02 3d 08 80 4f 3e
       0.15407136 0.085826114 0.031901922 0.20263684
000030 e0 bf d3 bc 63 b7 17 bd d8 be f4 3b f9 32 fc 3b
       -0.025848329 -0.037040126 0.0074690394 0.007696506
000040 7f c6 4d 3c f9 bd 24 3c 00 8c a0 bc db f9 94 bd
       0.012559532 0.010055059 -0.019598007 -0.07274219
000050 80 0a 8f 3c 46 97 03 bd d0 45 53 3d ee cc cb 3c
       0.017461061 -0.032126687 0.05158025 0.024877992
000060 c0 19 eb 3c e7 d8 fa 3c df 4b 0d be b7 48 dd 3c
       0.028698802 0.030621005 -0.13798474 0.027012212
000070 ee 6a a9 bc 32 a5 63 3c 4a 5b 8a 3d 10 64 6c bd
       -0.02068087 0.013894366 0.06755693 -0.057712615
000080 9c 6e c5 3d 52 27 0a bd 15 7a 7f bc b9 67 57 38
       0.09640238 -0.033728905 -0.0155930715 5.1356594e-05
000090 fb 45 a9 3c 80 38 f3 bd 82 47 c9 3d be 79 53 3d
       0.020663252 -0.11876011 0.09828092 0.051629774
0000a0 2f 8a e4 3a 59 ae 40 3c 3f bc f4 3b 78 49 26 3d
       0.0017436201 0.011760318 0.0074687297 0.04059741
0000b0 80 17 cc 3d 16 f8 43 bc f0 21 aa 3a c2 4d 00 3d
       0.0996542 -0.011961004 0.0012980085 0.031324156
0000c0 a1 f9 8f bd a9 4a 33 3d 94 85 5b bc 8a c5 2a bd
       -0.07030035 0.043772373 -0.013398547 -0.041692294
0000d0 4d 10 12 3c 02 83 81 3b b4 c9 57 bd f5 42 19 bd
       0.008915019 0.003952385 -0.052682593 -0.03741737
0000e0 2f 67 86 3c 83 da f6 bc 4c 4a e5 3d a9 48 02 3b
       0.016406624 -0.030133491 0.11195812 0.0019879735
0000f0 25 5d a4 3c 40 e1 e3 3c 2f 97 28 3b c3 0f 36 bd
       0.020063946 0.027817369 0.0025724878 -0.044448625
000100 77 9c d0 3c 18 16 f5 3b fa 60 d9 3c 34 e2 b3 bb
       0.025465233 0.0074794404 0.0265355 -0.005489612
000110 55 41 87 bd 5d 00 87 3c c3 88 b3 bd 89 e8 d3 ba
       -0.06604258 0.016479665 -0.087663196 -0.0016167323
000120 a0 6f d7 bc 35 52 6b 3d f3 c1 3e bd b8 bc 7e 3b
       -0.026298344 0.057451446 -0.046571683 0.003886981
000130 1a ad c2 bc d0 ed 8c bd 04 79 0e bc fa a3 11 3d
       -0.023764182 -0.06881297 -0.008695845 0.03555677
000140 10 e8 d7 bc d5 5f 04 bc b8 18 a5 3d a2 f7 95 3d
       -0.026355773 -0.008079489 0.08061355 0.07322623
000150 f1 55 29 bd c4 9c 1c bc 68 24 95 3d 1b be d8 bc
       -0.041341726 -0.00955886 0.072823346 -0.026457837
000160 87 08 7f bd 8a 39 bc bd 25 2a 5a 3b 49 8c 26 bd
       -0.06226399 -0.09190662 0.003328928 -0.04066113
000170 4a da 0d bd 8d ca 36 3d 15 48 b1 bb 02 8b 37 3d
       -0.034632005 0.04462676 -0.005410204 0.044810303
000180 6d 3f 96 bd 04 a8 9c 3d 61 14 62 3c 61 fb 47 3b
       -0.07336316 0.07649234 0.013798804 0.0030514824
000190 85 d6 c4 3c 2f e2 43 bb 94 94 d3 b9 6a 08 60 3d
       0.024028072 -0.0029889455 -0.00040355755 0.054695524
0001a0 ba 88 43 bc 28 9f e5 bb 0b 6d 7f 3b 74 ac 04 bc
       -0.011934454 -0.0070074983 0.0038974907 -0.008097757
0001b0 9b 07 08 bc 42 69 71 bb 9c 61 64 bd 17 60 04 3d
       -0.008302595 -0.003683642 -0.05575715 0.0323182
0001c0 69 cb 79 bd e2 cd e6 3c 72 89 67 3d fb b9 34 bd
       -0.060985003 0.028174344 0.056527562 -0.044122677
0001d0 21 87 ac 3c 49 d7 09 bd 8f 9c 17 bd 2a be 23 3d
       0.021060528 -0.033652578 -0.03701454 0.039976276
0001e0 60 d6 86 bc 3c 21 1a bc 62 d6 06 3e 8f 04 eb bc
       -0.016459644 -0.009407338 0.13167718 -0.028688697
0001f0 9c aa 27 3d 58 ba 59 3d 39 20 00 bd 82 af 28 3d
       0.04093419 0.053156227 -0.03128073 0.041183002
000200 df 2c 3e bd 20 7c e1 bb 4e 32 b0 3c a0 20 3d bd
       -0.04642951 -0.006881252 0.021508362 -0.04617369
000210 8f f5 9f 3d f7 5f 7e be 2c 8a aa 3c a3 3b 4b 3d
       0.078105085 -0.24841295 0.020817839 0.04961742
000220 d4 69 06 3d 52 62 54 bd c5 d7 07 3a 08 95 ad bd
       0.03281577 -0.051851578 0.00051819935 -0.08475691
000230 e2 26 17 3e 7b 7d cb bc 94 ce 54 bb 0f d8 5a 3c
       0.14760926 -0.024840107 -0.0032471763 0.013357176
000240 3a 18 7f bb c2 a2 82 bc 40 ac 11 bb 91 84 3d 3d
       -0.0038924352 -0.01594675 -0.0022227913 0.046269003
000250 6d cd 97 3c 24 85 4f bc f6 fa c9 3d 45 ef 08 bd
       0.018530572 -0.012666021 0.0986232 -0.03343131
000260 67 45 b9 3a 11 56 6a 3c d2 21 17 3d 71 81 cf 3c
       0.0014135063 0.014302746 0.036897488 0.025330277
000270 61 02 0f bd d7 17 81 3b 0b e2 de 3c 73 36 d4 bb
       -0.034914378 0.0039396095 0.027207395 -0.0064762174
000280 25 a1 6b be 3d b2 1d bd ea 93 85 bd 0f 62 a4 bc
       -0.2301069 -0.03850006 -0.06522353 -0.02006629
000290 76 07 58 bb cf 88 84 3d b2 d1 86 be 53 bb e7 3c
       -0.0032963431 0.06471407 -0.2633186 0.028287565
0002a0 72 22 07 3d 73 04 ae 3c f1 9f 1b 3c 3a 32 eb 3c
       0.032991834 0.021242356 0.009498582 0.028710473
0002b0 ee 08 f5 3d d2 37 8d 3b ab b5 f9 3c e9 4d 2e 3d
       0.11964594 0.004309633 0.030482134 0.04255477
0002c0 c6 cd 83 bd 7d 79 8c 3c 9c 55 2e bd bb 80 1e bd
       -0.064357325 0.017147774 -0.042562112 -0.038696986
0002d0 a0 31 2e 39 21 a0 4c bd 7d cf 59 bd 33 b6 2a bd
       0.0001661242 -0.0499574 -0.053176392 -0.041677665
0002e0 6d 48 57 3d 20 c6 15 bc 63 ae c5 bd 40 fe 16 bd
       0.052559305 -0.009141475 -0.09652402 -0.036863565
0002f0 08 db ea ba c2 f7 21 3d ee 58 f6 ba 1e c6 40 bd
       -0.001791806 0.03954292 -0.0018794814 -0.04706394
000300 57 d9 40 3d 7a 7e 8f 3c cc 88 71 bc 58 d5 22 3d
       0.04708227 0.017516363 -0.014742088 0.03975424
000310 4d 56 33 bd bf 18 06 bd 66 24 d1 3d be d4 b6 3c
       -0.043783475 -0.032738443 0.102120206 0.02231824
000320 24 cd 28 bc 04 99 35 3d 64 a2 49 bd 6c 9c 71 bc
       -0.010302816 0.04433538 -0.049227133 -0.014746767
000330 f8 49 bd bc 8c 9c 7e bd 86 eb 33 3c 19 34 fa 3c
       -0.02310656 -0.062161013 0.010981446 0.03054242
000340 13 94 45 be fe ff b8 3c 80 a5 9e 3d 10 0a 4f 3d
       -0.19294767 0.022583004 0.0774641 0.050546706
000350 01 24 b1 bb a4 00 06 3d a9 93 9a 3c 83 8b 44 3c
       -0.0054059033 0.032715455 0.018869238 0.011996153
000360 7c 9a 0a bd 57 86 97 3d 6a f5 f2 bc 34 1c 89 3e
       -0.033838734 0.0739867 -0.029658038 0.2677933
000370 4c 44 50 bc 30 dd 19 3d 89 cd 0f 3d 28 bd bc 3c
       -0.012711596 0.037564456 0.035108123 0.023039415
000380 5e 87 92 3d 24 75 45 3d 5e f1 eb bb 73 fe 39 bd
       0.071547255 0.048207417 -0.007200404 -0.045408677
000390 1f b3 46 3d ec 79 eb bc ae 93 c5 bc a9 7b c5 3d
       0.048510667 -0.02874466 -0.02411827 0.09642727
0003a0 0f 5b 51 3b 2a 88 c6 bc fe 8b 0e 3d eb 88 63 3b
       0.0031945144 -0.02423485 0.034801476 0.003471906
0003b0 2a 1e 77 bb cb 6f 33 bd 55 6f 8f 3d 1c 19 82 3c
       -0.0037707188 -0.043807786 0.07003657 0.015881114
0003c0 d5 61 3b bd f8 b4 f5 3c 81 41 ad 3d 07 d6 70 bd
       -0.045747597 0.02999352 0.084597595 -0.058797862
0003d0 79 d3 fa 3b 9d 5a e3 3c 59 63 3e bd 04 61 49 3c
       0.007654604 0.027753169 -0.046481464 0.012291197
0003e0 02 b8 1e bc 29 c8 c2 bc f7 2f 89 bd 0e 68 ab bc
       -0.009687426 -0.023777084 -0.06698602 -0.02092364
0003f0 17 76 12 3b 57 bc 69 3d 35 f7 cd 3c c4 55 c0 bd
       0.002234822 0.05706438 0.025142292 -0.093913585

classifier.bias f4 [3]
000000 06 12 de bd d1 e7 9c bd a6 69 42 3e
       -0.108432814 -0.07661403 0.18985614
