checkpoints/semeval2016_baseline_best.pt (torch, 463911 bytes, 6 tensors)

gcn1.bias f4 [128]
000000 eb 12 bf bd fb 38 67 bd ed aa e8 bd 59 d3 f7 bc
       -0.0932978 -0.056450825 -0.113607265 -0.030252146
000010 6c c5 2c bc 0e 72 0e be 97 90 da bd 38 ac be bd
       -0.010545116 -0.13910696 -0.106721096 -0.09310192
000020 71 ee 85 bc 5f 79 2d b8 4d e4 66 bc 16 09 2a 3c
       -0.01634905 -4.135945e-05 -0.014092517 0.010378143
000030 f2 39 6f bc f8 e8 02 be 0b 45 5f bd cc 08 bd a2
       -0.014601218 -0.12784183 -0.054509204 -5.1237867e-18
000040 c1 5a f5 bc 7e db f2 bd 30 60 5b bd ab 67 f9 3b
       -0.029950501 -0.11858271 -0.05355853 0.007611235
000050 69 73 39 bc 39 68 66 bb b2 4b a9 bc 01 64 51 be
       -0.01131902 -0.0035157336 -0.020665977 -0.20448305
000060 9a 19 d9 bd d2 77 e8 bd 91 90 c2 bd 3a d3 31 bb
       -0.10600586 -0.11350979 -0.0950023 -0.0027133957
000070 fd cb 80 9a 72 fc dc bd 73 28 61 bd 74 1c 44 bd
       -5.326912e-23 -0.107903376 -0.054970216 -0.047878698
000080 d2 84 c5 bd f4 7d 88 bd 65 4c 13 bd 12 2a d2 bb
       -0.09644474 -0.06664649 -0.035961527 -0.0064137066
000090 be 13 b9 bd ca 9e f5 bd 4c 13 93 bd 44 e7 6e b9
       -0.09036969 -0.11993177 -0.07181415 -0.00022783602
0000a0 2b ee a6 ba 9c 97 80 be 12 ff 9b 3c c6 5d f7 bd
       -0.0012735775 -0.2511567 0.019042525 -0.12078433
0000b0 0d e5 06 be e6 2e 22 bb 6b b3 94 bd b5 21 c2 bc
       -0.13173313 -0.0024747192 -0.07260784 -0.023697713
0000c0 5d e3 10 91 db 0d 04 80 f9 97 a7 bd 4b 2c 1f be
       -1.1429659e-28 -3.72312e-40 -0.08183283 -0.1554424
0000d0 f0 6d bf bd d3 95 8f bd be ca ae bc 4b b7 20 bc
       -0.09347141 -0.070109986 -0.02133691 -0.009809325
0000e0 20 21 48 bd 23 13 36 bd c7 50 4b be 44 a2 73 bd
       -0.048859715 -0.044451844 -0.19855033 -0.05948092
0000f0 dd 12 89 bd b9 f6 ed bd 21 46 a6 bb cd c1 33 bd
       -0.06693051 -0.11619324 -0.005074278 -0.043885995
000100 32 e8 2e bc 4d 85 87 bd e5 9d 17 be dc 35 70 3c
       -0.010675477 -0.06617222 -0.14806326 0.014661279
000110 3f d4 1f bd f5 28 91 bc 1b 1f 65 bc fd 30 58 3c
       -0.039020773 -0.017719725 -0.013984467 0.0131952735
000120 4d 3c 45 bc e5 76 b4 bd f1 8a 87 bd bc 63 ad bd
       -0.012038303 -0.0881174 -0.06618298 -0.084662884
000130 1f 4c 06 a7 42 5f 74 bb 49 e1 ee bd 35 76 f9 bd
       -1.86375e-15 -0.0037288223 -0.116640635 -0.12180749
000140 64 b3 be bc 86 e3 1a b8 b8 cf 1a bd 0f 2b 83 bd
       -0.0232789 -3.692836e-05 -0.037795752 -0.06404697
000150 1c e8 1e bb 93 bf 3e bd 84 c8 89 bb b4 71 46 bd
       -0.0024247235 -0.04656942 -0.0042048115 -0.04844828
000160 8d 1b d7 bd 2c dd 88 bd c7 93 8a bd 55 9a 55 bd
       -0.10503302 -0.0668281 -0.067664675 -0.052149136
000170 5c bc 11 3b 28 1b ed bd 37 3e 20 bc b0 3c 03 bd
       0.0022237515 -0.11577445 -0.009780458 -0.032040298
000180 8b 61 01 be a1 55 85 b2 81 35 5e be 10 0d ad b6
       -0.12634866 -1.5522177e-08 -0.21700098 -5.1573224e-06
000190 68 de 8b bc 60 9e b2 bd 56 53 9c bd f9 b8 9e bd
       -0.017073825 -0.08721614 -0.076330826 -0.077501245
0001a0 72 33 3c bd 6d 70 04 be 54 53 d8 bc 6d 38 29 be
       -0.0459475 -0.12933512 -0.026406921 -0.16525431
0001b0 44 39 d4 b2 c9 ee 2f bb 48 02 57 bd 5b ef f5 bd
       -2.470609e-08 -0.0026845208 -0.05249241 -0.12008544
0001c0 a7 39 b4 bd f4 6f 66 bc f8 9e b0 3c a9 2e ff bd
       -0.08800059 -0.014064778 0.021560177 -0.124600716
0001d0 93 18 17 bb 24 a6 86 af 97 c8 34 bd e9 83 61 bd
       -0.002305542 -2.4492508e-10 -0.04413661 -0.05505744
0001e0 c9 d2 6b bd d5 85 39 bd fe 66 31 ab 5c 0b 68 bb
       -0.057574067 -0.045293648 -6.302596e-13 -0.0035407161
0001f0 49 dd a3 bd c6 39 56 bd 1c f6 07 bd 2e 3d ad bc
       -0.08001191 -0.05230119 -0.033193693 -0.021147337

gcn1.lin.weight f4 [128, 768]
000000 ee 4a c2 bd f3 52 29 3f b6 fe b6 3d 0a 5f 40 be
       -0.09486948 0.66142195 0.08935301 -0.18786255
000010 6a ff a6 be f4 d9 d7 3d e4 b9 33 bc 0a d7 45 be
       -0.3261674 0.10539618 -0.010969613 -0.19320312
000020 16 8d 1b 3f 64 ad 42 bd 45 68 0b 3d f0 7a 22 be
       0.60762155 -0.04752864 0.034034986 -0.1586721
000030 82 8a ba 3d 0d bc bf 3d 45 1e d7 bd a2 1e 7c 3e
       0.091084495 0.0936204 -0.1050382 0.2462106
000040 12 53 cd 3e a8 86 52 3e c7 04 40 be 53 e5 9a 3d
       0.4010244 0.2055918 -0.18751822 0.075632714
000050 f5 2f ff be 8d bb de 3d ff 09 3a 3d ad e9 84 be
       -0.49841276 0.10875616 0.04541969 -0.2595953
000060 3d ad 26 3e 33 6d dc 3d 7b 2a 2b 3f 08 16 fd 3c
       0.16277023 0.107630156 0.66861695 0.030894294
000070 7b 01 a3 be e2 6b 9f bc 20 7c 54 3e 70 b8 2d be
       -0.31837067 -0.019460622 0.20750475 -0.16964889
000080 3d a6 8f 3e da 4b 74 be 58 64 82 bc d2 d0 1d be
       0.28056517 -0.2385706 -0.015916988 -0.1541169
000090 69 89 19 be 04 6b 77 be 4d 5f ba 3e ab 04 b9 be
       -0.14993824 -0.24161917 0.36400834 -0.36136374
0000a0 48 1b 18 be 53 54 d2 3c 2d 7d 0f bd f5 70 ce bd
       -0.14854157 0.025674975 -0.035031486 -0.100801386
0000b0 b6 3f 36 bd fb 7a 0b 3e 16 24 08 3d 80 c9 bd be
       -0.044494353 0.13621132 0.03323754 -0.37067795
0000c0 c0 cb 09 bf 28 3f db 3b be 27 f6 be a5 85 30 bd
       -0.5382652 0.0066908784 -0.48077196 -0.043096203
0000d0 da ff 7d 3e e9 6b 8c be 48 ff a6 3d ed d1 ae bd
       0.24804631 -0.2742608 0.0815416 -0.08536134
0000e0 9a b7 7d 3e 67 d3 44 be 47 05 b2 3d df 74 00 3d
       0.2477707 -0.19221269 0.08692413 0.031361457
0000f0 88 87 69 3d 7f 11 f0 3d 01 86 78 3d df 41 47 3e
       0.05701402 0.11722087 0.06067467 0.19458722
000100 4a 09 6e 3d 7f 27 74 3e 81 f4 5d bd 23 9a f0 3d
       0.058114327 0.23843192 -0.054188255 0.11748149
000110 1d f1 47 3d b8 9a 7e 3e 77 55 1f 3e 4c 4d 08 be
       0.048813928 0.24863708 0.15559946 -0.13310736
000120 bc 97 f2 3e ad e8 0b 3d 76 cf a1 3d e4 d6 8f 3d
       0.4738139 0.034157444 0.07900898 0.07023409
000130 58 28 23 bc 46 91 a6 3d c0 be 67 3e 49 29 75 bd
       -0.009958349 0.081331775 0.22631359 -0.059853826
000140 cd 35 ac be e8 f1 04 3c 8d f4 05 be d7 ae 48 3d
       -0.33634797 0.008114316 -0.1308157 0.048994865
000150 86 05 83 3e 7a a7 15 3e 23 df 5a 3e c0 cc 2c be
       0.25590152 0.14614668 0.21374182 -0.16874981
000160 a5 0e 03 be ad d9 f7 3a 50 6b 75 bd e0 e9 85 be
       -0.12798555 0.0018909477 -0.059916794 -0.26154995
000170 fd f4 df bd 22 13 a0 3e 65 04 ba 3d 55 5b 32 bd
       -0.109354 0.31264597 0.090828694 -0.043544132
000180 6d 47 10 3e ee 75 32 be e9 63 0a 3f 1c b1 ae bd
       0.14089747 -0.17427799 0.540587 -0.08529875
000190 e1 61 b0 3e 83 f1 25 3e 3d e9 9f be 62 43 c4 3e
       0.34449676 0.1620541 -0.31232634 0.3833266
0001a0 5e ec 09 3e be 21 6e be fb ec 00 3f 3d b5 aa be
       0.13469073 -0.23255059 0.50361603 -0.333414
0001b0 c7 41 9e 3d 16 e1 83 be 6b 0c 2e be 19 38 66 be
       0.0772739 -0.25757664 -0.16996925 -0.22482337
0001c0 dd 77 69 3e 51 16 32 3d 16 ba a0 3d be fe 18 bd
       0.2279963 0.043478314 0.07847993 -0.037352316
0001d0 8d 31 ce 3c 14 35 6c 3b fd d4 c0 be ad 7a a4 3e
       0.025170112 0.003604238 -0.37662497 0.32124844
0001e0 c4 fb 7e 3e cc d5 cb 3d f8 04 02 3f f3 aa c6 bc
       0.24900728 0.09952888 0.5078883 -0.024251437
0001f0 9d b9 c1 be e6 6e f3 bc 86 ab 70 3b 49 5b 0c 3e
       -0.37836924 -0.029715966 0.003672333 0.13706698
000200 11 05 bf 3c 3c 3a 47 be b9 16 53 3e 02 3b 5c 3e
       0.023317846 -0.19455808 0.20614137 0.21506885
000210 e0 4e 10 3e 4d fc 57 3e b2 fb fe 3d 44 d3 1d 3d
       0.14092588 0.21092339 0.12450351 0.038531557
000220 00 b1 77 3e b5 cf 15 be 79 c8 cd 3c 36 2b 60 3e
       0.24188614 -0.14630015 0.025120007 0.21891484
000230 59 20 d2 3d 20 29 0e bd 78 60 7d be 62 65 cf be
       0.10260076 -0.03470719 -0.24743831 -0.40507036
000240 e2 9b 0f be a4 93 88 be 04 fe 19 3f 93 dd 5e be
       -0.14024308 -0.2667514 0.6015322 -0.21764211
000250 07 a6 2b 3e a4 18 ed bd 71 14 e9 bd ea ce 64 3e
       0.16762553 -0.115769655 -0.11380852 0.22344556
000260 8a 49 4a be a4 d9 ad 3d 98 db 0d be be 51 fd 3b
       -0.19754615 0.08488777 -0.138533 0.0077306917
000270 00 d0 3e 3e 07 76 87 be 15 8d 9c 3e ee b1 8b bd
       0.18634033 -0.26457235 0.30576387 -0.06821047
000280 ed d7 9b be 67 c1 7d be 13 3b b6 bd ca f3 f8 bd
       -0.30438176 -0.24780808 -0.08897986 -0.12155874
000290 44 33 cd 3d 47 9f 3a 3e 40 11 4f 3e d7 7e e0 bd
       0.10019544 0.18224822 0.20221424 -0.10961693
0002a0 f4 67 9b be ab ff 86 3d 9e 22 41 3e 2f c2 4b be
       -0.30352747 0.065917335 0.18860862 -0.19898294
0002b0 b3 f9 0c be ff b1 d9 3d 3b ca 80 3e a1 aa c6 3e
       -0.13767128 0.10629653 0.2515429 0.38802055
0002c0 59 10 c6 3e c0 a7 3c 3d 32 e9 85 3e fb 8c 3f 3c
       0.38684347 0.046058416 0.26154476 0.011691327
0002d0 68 96 47 3e 4d c0 87 3e 53 70 28 3d 2b 15 bc 3e
       0.19490969 0.265139 0.041122746 0.367349
0002e0 5c 0d 93 be e3 60 38 3e 07 24 84 3d 28 0e 51 3d
       -0.2872113 0.1800571 0.06452184 0.05103889
0002f0 07 bb 84 be e8 86 32 be ca 2b aa 3e ed f4 88 bd
       -0.2592394 -0.17434275 0.33236533 -0.06687341
000300 63 06 6c be db 9b c4 bd 60 c7 96 bc e2 d6 3a 3d
       -0.23049311 -0.096000396 -0.018405616 0.045615084
000310 cb e6 7f be d5 ff d0 bd a7 2a bf be 88 f3 bc bd
       -0.24990384 -0.10205046 -0.3733723 -0.092261374
000320 1a 24 78 3e 3c 04 fc 3c fa 5f 30 be 23 c1 79 bd
       0.24232522 0.030763738 -0.17224112 -0.060975205
000330 c5 8b a7 bc b5 22 35 3e 0d 64 1a be 85 74 49 3e
       -0.02045239 0.17689021 -0.15077229 0.19673355
000340 f5 5e 62 3c 2f d9 59 3e db 0e ab 3d 79 06 c0 be
       0.013816585 0.21274255 0.08352443 -0.37504938
000350 e5 0b e0 bd 65 cc 0a be 76 7f 43 3e 55 af c2 3e
       -0.10939769 -0.13554533 0.19091591 0.38024393
000360 41 89 c7 be ca 10 f5 3d 49 f9 1d be 48 6b 55 be
       -0.38971904 0.11966093 -0.15427126 -0.20841706
000370 55 cf 99 3e 52 3b 90 be 75 bb 99 bd e4 59 08 3d
       0.30040994 -0.28170258 -0.07506458 0.03328885
000380 3a b1 06 3f ef 35 29 be b5 ea df 3d 23 6c 1a 3d
       0.52614176 -0.1652448 0.10933439 0.037700783
000390 76 89 39 3e a9 4a b5 bc 01 4b e9 bd bb 9f 9b 3e
       0.18118843 -0.022130327 -0.11391259 0.30395302
0003a0 8b 3d dd be 21 9a 5f 3c 19 26 b5 be 65 11 6c be
       -0.43211016 0.013647587 -0.3538063 -0.2305351
0003b0 e3 a5 3b bc 5c db a0 be b7 84 90 3e 5f 45 e8 bd
       -0.011453125 -0.31417358 0.28226253 -0.113413565
0003c0 14 46 af bd b2 1e b2 3e 3f 88 f8 3d f1 d9 a6 3e
       -0.08558288 0.34789044 0.12135362 0.3258815
0003d0 8c 7a 3f be cf 96 69 3d 63 51 60 be ff a4 27 be
       -0.18699092 0.057028588 -0.21906047 -0.16371535
0003e0 cc 52 bb be 4f d4 95 3e 9b 36 18 be 6e dd 88 3e
       -0.36586607 0.2926354 -0.1486458 0.26731437
0003f0 39 8c 2b be 5e b4 fb 3c b1 a4 ba 3d 18 72 84 3e
       -0.1675271 0.030725654 0.09113444 0.25868297

gcn2.bias f4 [128]
000000 0c 0f a7 bd 16 58 88 3d 58 ee 32 3e 6a a8 0a 3d
       -0.08157167 0.06657426 0.17473733 0.03385202
000010 5e 32 32 3e 27 55 2e be 9e 9b 63 3d e2 37 1a be
       0.17402026 -0.1702467 0.05556833 -0.1506038
000020 bf 20 1f bd f3 e3 a8 bd aa 77 5c bc b2 fe de 3d
       -0.03884959 -0.08246603 -0.0134562645 0.10888423
000030 a1 d6 aa 3d 97 a6 3f 3e be 91 3b be 1b 4c cd bd
       0.083417185 0.18715893 -0.18317315 -0.100242816
000040 49 72 3e 3d cc 9c a3 3d 74 e3 dc bd 4a bd 39 be
       0.04649571 0.07988891 -0.10785571 -0.18138614
000050 4d 90 25 be 5b ac 19 3d 56 9b 5d 3b e2 be 95 3d
       -0.16168328 0.037517887 0.0033814511 0.07311799
000060 b3 66 1a bb 31 d3 6f 3d 79 76 8b bb bf c6 1c 3c
       -0.0023559749 0.058551017 -0.0042560664 0.009568869
000070 dc 7f 02 be 43 02 54 3e 0d 8c c5 3d 37 91 70 3d
       -0.12744087 0.20703988 0.09645853 0.058732238
000080 7d 8d f1 bc 9a 23 b6 3b c4 bb 03 be 1e 8a 04 be
       -0.029486412 0.0055584433 -0.12864596 -0.12943313
000090 25 4f 54 bd 36 c8 ea 3d ea 2f 85 3e 64 fc 45 3d
       -0.05183329 0.114639685 0.26013118 0.0483364
0000a0 25 07 2b 3e 44 47 23 be da ef 2d 3e 1f 18 0e 3e
       0.16701944 -0.15945154 0.16986027 0.13876389
0000b0 2f 18 11 bd 6b ce 1d 3e ff 15 30 be b9 c6 bc bd
       -0.035423454 0.15410773 -0.17195891 -0.09217591
0000c0 7e 51 8a be 7b 63 9c 3d 91 3c 51 3d 7d c7 be bd
       -0.270153 0.07636162 0.05108315 -0.09315393
0000d0 90 5a 03 3e e3 74 b5 bd da cb c8 bd eb 96 36 3a
       0.12827516 -0.08860185 -0.098045066 0.00069652376
0000e0 22 28 d9 bd 37 0b fa 3d 41 f2 9e ba ce c5 1e bd
       -0.10603358 0.1220917 -0.0012126641 -0.03876286
0000f0 10 47 4e bc 2a 98 17 3e c9 42 14 bb 9f 16 bc bd
       -0.012590185 0.1480414 -0.0022622815 -0.09184002
000100 42 4c 9a 3d 05 5b ea 3d cc c3 53 3e 6f 07 b5 bd
       0.07534076 0.11443142 0.2068016 -0.088393085
000110 7f 08 fb bd 91 c6 b9 3d 52 8b 3c be a7 83 f1 3c
       -0.1225748 0.09071077 -0.18412521 0.029481722
000120 da 99 a2 bd 31 ea 17 3e 7f c1 d7 3d a5 78 d8 bd
       -0.07939501 0.1483543 0.10534953 -0.10569886
000130 1c 7d 9c bc b9 67 c2 bb 27 9a a9 bd 71 16 16 bd
       -0.019102626 -0.005932775 -0.08281355 -0.036642496
000140 c4 d2 ac 3d bd 59 ec 3d 3a 74 e9 bd a3 83 2e be
       0.08438638 0.11540554 -0.113991216 -0.17042403
000150 f3 e3 40 bd 00 dc 87 3d 35 b6 11 3e f5 d7 12 bd
       -0.04709239 0.066337585 0.14229663 -0.035850484
000160 f0 f7 1c be 2a 75 4a be c5 c0 08 bd 88 05 21 be
       -0.15328956 -0.19771257 -0.033386964 -0.15724766
000170 b7 9f 99 bc 91 70 39 bd 7a 70 a9 3d 2e d0 60 3e
       -0.018752916 -0.045273367 0.08273406 0.21954414
000180 2a 11 25 bd 1a ea 3e 3e ad 2a 25 bd e9 aa 50 be
       -0.040299572 0.1864399 -0.040323902 -0.20377697
000190 0b e6 f6 3a 1d 90 35 be 9d 55 f8 3d f9 c4 9f 3b
       0.0018836869 -0.17730756 0.121257044 0.004875776
0001a0 f6 38 28 be 8e 2f 0b be 7c 60 19 be ef 65 fb bc
       -0.16427979 -0.1359236 -0.14978212 -0.030688254
0001b0 46 9b 51 bd 98 0b c7 3c a8 c3 3e 3d 21 e6 84 bd
       -0.05117347 0.02429752 0.04657331 -0.06489206
0001c0 50 f4 ae bd 36 69 c2 bd 11 7e da bb c5 06 f5 bd
       -0.08542693 -0.09492724 -0.0066678603 -0.11964182
0001d0 7c a0 7d 3d 85 de 4e be fb d1 b1 3a 44 5b 04 be
       0.061920628 -0.20202072 0.0013566607 -0.1292544
0001e0 f3 ce 5c bd e8 01 ae ba 5a 81 c9 bd 0a 01 33 3e
       -0.0539083 -0.0013275715 -0.09839125 0.17480865
0001f0 7a e5 49 3c c6 a5 02 be ca d3 d9 bd ee 60 5a 3e
       0.012322778 -0.1275855 -0.10636099 0.21326038

gcn2.lin.weight f4 [128, 128]
000000 1b 45 c2 bd 00 0d 53 3d 85 de 92 bd 5c 45 85 af
       -0.09485837 0.05152607 -0.071713485 -2.4241842e-10
000010 5a fd 1c 3c 1e 0b 99 be 18 bc 96 be c7 10 e8 bd
       0.009581888 -0.29891294 -0.2944038 -0.11331325
000020 36 11 b4 bb b6 7a 82 32 6f 64 69 bc d2 9e 52 bd
       -0.0054952158 1.5189794e-08 -0.014245137 -0.051420994
000030 df 8a 93 3d 89 c9 e6 3d 0f 46 8d 3e 57 c4 7e 23
       0.07204222 0.112689085 0.27592513 1.3810944e-17
000040 59 ef d9 ba 25 89 c4 3d 41 3f 86 3e 20 28 47 3d
       -0.0016627117 0.09596471 0.26220134 0.04862225
000050 0e f4 af 3b 3e c6 b1 b9 90 95 19 3d bf 61 a8 bd
       0.0053696698 -0.00033907773 0.03749615 -0.082217686
000060 87 5e a5 be 50 90 3a 3d 87 ad 91 bc b5 b8 11 af
       -0.3229868 0.045547783 -0.01778294 -1.3253294e-10
000070 e2 51 6e 9e ca df b3 bc 33 80 16 be 1c 3f c7 bc
       -1.2616548e-20 -0.021957297 -0.14697342 -0.024322085
000080 df 7b 0d 3e fb 9b fa 3c 85 62 c9 be f4 41 27 3c
       0.13816784 0.030591955 -0.39332977 0.010208596
000090 56 a9 6a bc 82 92 02 3e bd dd 7c 3d d1 3f c3 b8
       -0.014322599 0.12751201 0.061734904 -9.310211e-05
0000a0 35 8f 17 39 43 35 36 3e 62 2a ba bd e8 55 a8 bd
       0.00014453831 0.17793755 -0.09090115 -0.0821951
0000b0 b9 22 16 3e 37 13 3f ba ee 84 d5 bc e5 3a e7 2d
       0.14661683 -0.0007288935 -0.026064362 2.6287814e-11
0000c0 c4 28 a2 9d 97 31 c7 0c 90 e1 74 3e 10 37 81 3e
       -4.2923194e-21 3.069065e-31 0.2391417 0.25237322
0000d0 00 bc 66 3e af b7 86 3e 72 a6 dd 3b ec eb ea 39
       0.22532654 0.26312014 0.0067642266 0.00044807734
0000e0 7d 7f 81 3d 5f f1 79 bc fb 67 da bc db d0 84 3d
       0.063231446 -0.015255301 -0.02666091 0.064851485
0000f0 e1 9e 99 3e a1 14 7b 3d 95 82 81 b9 a4 04 e7 be
       0.30004027 0.06129897 -0.0002470209 -0.45120728
000100 b9 a3 08 3d d0 53 03 3c 5a 6f 21 be c2 9d 82 3c
       0.033359263 0.008015588 -0.15765134 0.015944365
000110 15 5c 44 b7 cb bd f2 3b c6 b5 7b bc 87 61 43 be
       -1.170395e-05 0.007407879 -0.015363162 -0.19080172
000120 af d8 11 3d b6 76 04 be d6 75 87 be b5 d1 e3 ba
       0.035607036 -0.1293591 -0.2645709 -0.0017381223
000130 84 fe b1 a2 c0 30 66 3c 50 08 8c bd 77 36 cd bd
       -4.8245425e-18 0.014049709 -0.06837523 -0.10020154
000140 dc ce 0d 3d c2 ea b2 37 59 f7 9c be c4 57 b3 3d
       0.034621105 2.1328571e-05 -0.3065746 0.08756974
000150 18 79 58 3c 42 29 5c be 24 45 13 3b c8 ad 42 3e
       0.013212465 -0.21500114 0.002247163 0.19011605
000160 03 4c 2f be c9 cd c9 bd 2a d4 68 3d dc 78 b3 3d
       -0.1711884 -0.098537035 0.05684296 0.087632865
000170 35 7f f7 bc 4b b5 8e bd 94 9a 07 3c 48 05 b5 b9
       -0.030212024 -0.06968173 0.0082766 -0.00034526945
000180 8b 1a c4 3c 41 c1 e9 25 59 cf 9c 3e 41 09 01 00
       0.023938438 4.055001e-16 0.30626944 9.5155e-41
000190 c8 fb 2d be cf 85 68 3d b1 97 0a be 34 88 a8 3e
       -0.16990578 0.056768235 -0.13534428 0.32916415
0001a0 1d 98 ac 3d 42 ef a5 be c6 be 67 3c 49 41 10 be
       0.08427451 -0.32409102 0.014144605 -0.14087404
0001b0 f6 6a ee 24 6b f8 cd 1d b0 b7 34 3e 78 a4 6f 3e
       1.03397246e-16 5.4519906e-21 0.17648196 0.23402584
0001c0 38 a7 42 bc 90 94 03 bc ab da 17 be 9a f2 04 3e
       -0.011880688 -0.0080310255 -0.14829509 0.1298317
0001d0 ca cc 07 80 c6 1e 20 28 38 86 1f 3e 2f 39 bc bc
       -7.16313e-40 8.888457e-15 0.15578544 -0.022976486
0001e0 0c c4 c6 bc 3d eb 69 be 6e a4 46 11 37 98 87 3a
       -0.024263404 -0.22843643 1.5670115e-28 0.0010345046
0001f0 1d 0f 42 3e 1f 37 8c bb 00 8f 35 bc e5 a1 82 be
       0.18951078 -0.004279032 -0.011081457 -0.2551414
000200 a4 73 83 bb 02 ed 1a 3d d5 9b 14 bb 0b 4d 07 00
       -0.004011588 0.037823685 -0.002267589 6.70486e-40
000210 3e f1 97 3d 09 57 58 3c af 39 2b 3e 5e f7 71 bd
       0.0741906 0.013204345 0.16721223 -0.0590738
000220 17 ad 25 bc 03 f9 07 b2 f4 49 bf bc f8 2e 88 3c
       -0.010112069 -7.914653e-09 -0.023350693 0.016623959
000230 f9 d3 1e bb 39 b1 ad bc 79 4a 4e 3c 58 83 96 24
       -0.0024235232 -0.02120267 0.012590998 6.5274635e-17
000240 19 91 79 bd 9f 2d 49 bc fd e6 6f 3d b1 5d ec 3d
       -0.06092939 -0.012278943 0.058569897 0.11541308
000250 6d 52 68 3d dd f8 97 b7 54 0f 1e bb d6 8c d9 3d
       0.056719232 -1.8116489e-05 -0.0024118023 0.106225654
000260 8b 10 43 bc c5 ad cd 3a 4b a6 70 3d e3 96 5c 32
       -0.0119058 0.0015692046 0.05875234 1.2839993e-08
000270 41 b6 0d 9e e4 0d bb 3d 2b 77 95 bd 7e d2 cc bb
       -7.502167e-21 0.09133509 -0.0729812 -0.0062506786
000280 48 fb 72 bd ad fc 2c 3d b9 ee 98 bd 5c 03 74 3c
       -0.05932167 0.042233158 -0.07467408 0.014893379
000290 27 ae 74 bc dc 3d 16 3d 48 2b 35 bd 1a de 1d 02
       -0.014934099 0.036680087 -0.04423073 1.1598278e-37
0002a0 33 7e a2 36 64 f6 4e bc 3e 35 2a be 2f 1e 0c be
       4.8426677e-06 -0.012631986 -0.16621873 -0.13683389
0002b0 f7 ce 7b bc c9 b3 d6 b9 1f 2c aa bd 4e ac 7c 30
       -0.0153691685 -0.0004095121 -0.08309197 9.1921926e-10
0002c0 66 c0 e0 1c 48 f7 c7 8d a9 1e 6b 3d 63 8b 92 bd
       1.487281e-21 -1.2323853e-30 0.057402287 -0.07155492
0002d0 68 54 f7 3d e5 70 51 bd e6 e0 df bc 1e eb 39 3b
       0.12076646 -0.051133055 -0.02732892 0.00283689
0002e0 bb 1f 55 bd b7 2b c4 3c 82 b4 f3 3c fd 2a 65 3d
       -0.052032214 0.023946626 0.029749159 0.0559492
0002f0 3d 48 3c 3c 9e ef 87 3d 1c 4a f3 35 81 55 32 3e
       0.011491832 0.066375 1.812648e-06 0.1741543
000300 ad bc 2f 3d 69 69 b9 3b 49 51 c8 bd 96 9d 6b bd
       0.042904545 0.005658318 -0.09781129 -0.057523333
000310 b4 3d 3e b9 81 de 45 3d 10 8e f9 3c 07 cb 55 bc
       -0.00018142798 0.0483079 0.030463248 -0.013048894
000320 70 ac 8b 3b 01 25 37 be 61 b5 4c 3d 32 e7 df 3c
       0.0042624995 -0.1788521 0.049977664 0.027331922
000330 d4 35 4f a2 8a ab 3c bd b3 d0 c1 3d 75 53 05 bd
       -2.8082228e-18 -0.04606203 0.09463634 -0.032550294
000340 2b 20 d8 ba dd 64 fc b7 59 97 8e 3d c0 8c d6 3d
       -0.0016489079 -3.008771e-05 0.06962461 0.10476065
000350 45 65 31 3d fd b9 de bd 40 b3 16 bb 19 af 0e be
       0.04330947 -0.10875318 -0.0022995025 -0.13933982
000360 f1 95 5b bd ab e5 0b bc 88 ee 12 be 1a 77 6f 3d
       -0.053609792 -0.008538644 -0.14348805 0.058463193
000370 8e 62 dc 3c c5 39 11 3d 72 96 20 3d 84 f7 c8 ba
       0.026902463 0.035455484 0.039205976 -0.0015332554
000380 82 37 53 3c 4f 11 66 25 7e 68 15 be 52 8f 06 80
       0.012891652 1.9955184e-16 -0.14590642 -6.02427e-40
000390 a8 71 99 3d cc f7 99 3d be e3 b0 bc ff 0d b9 3d
       0.07492381 0.07517967 -0.021592971 0.09035873
0003a0 5c fc 02 be 84 59 fc 3c 63 3e 0d bc 41 46 2d bd
       -0.1279158 0.030804403 -0.008620831 -0.042303327
0003b0 9b f9 68 2d b4 ff 3a a7 82 7d bb 3c 9c 3c 05 be
       1.3243097e-11 -2.5951302e-15 0.022886995 -0.13011402
0003c0 81 30 01 be 55 6e 6d bc eb cc e6 bd 8c be 07 be
       -0.12616159 -0.014491637 -0.11269554 -0.13256282
0003d0 32 44 0c 80 a7 73 26 23 d3 f7 10 3e 13 4c 7f bd
       -1.12649e-39 9.023368e-18 0.14157037 -0.06232841
0003e0 3c dd 87 bd 08 e6 c1 bd 3e ad 98 8d b6 cc 8d bb
       -0.06633994 -0.09467703 -9.40943e-31 -0.004327382
0003f0 20 83 5f 3b 2c 81 60 3b 62 6e 98 bc ed 32 e4 3d
       0.0034105256 0.003425668 -0.018607322 0.11142526

classifier.weight f4 [3, 128]
000000 cc 51 40 3b 1c a2 86 3c 22 b3 8b 3b 7a 5c 11 3d
       0.002934563 0.016434722 0.0042632977 0.035488583
000010 3e 3a 84 bb e4 d0 c2 bd 4a 30 95 bd f1 12 c5 bc
       -0.0040352633 -0.09512499 -0.07284601 -0.024056884
000020 7a 48 36 bd 25 8b f2 bc 4d a3 ce 3c 24 ff 2c bc
       -0.044502713 -0.029607365 0.025224352 -0.010558877
000030 0e 03 a1 bc 1f 17 c4 bc 82 c4 3c 3d a3 85 4d 3d
       -0.019654777 -0.023936806 0.046085842 0.050176274
000040 39 2b 32 bb f2 8c 25 bd d8 6d b5 3c c0 1b 8d 3d
       -0.0027186407 -0.04041762 0.022147104 0.068900585
000050 d7 8b 33 bd 5a cd a1 bc c9 9b af bc d5 a5 86 3c
       -0.043834534 -0.01975124 -0.021436589 0.016436497
000060 b2 25 18 3c b9 06 01 bc b9 45 2a bd 46 b2 ea bc
       0.009286331 -0.007875138 -0.0415704 -0.02864946
000070 c0 d3 60 bd 09 00 c0 3c 21 9f 1f bc e5 cf 87 3c
       -0.05488944 0.023437517 -0.009742529 0.016578624
000080 7d 0d 71 3a 63 f7 48 bb 23 0e 09 3a e2 06 1a 3d
       0.00091954303 -0.0030665032 0.0005228242 0.03760422
000090 3a 21 7c 3d 76 61 06 bd 76 c2 07 bd 11 7b 16 bd
       0.061555125 -0.03280779 -0.033144437 -0.03673846
0000a0 d9 0c 64 bd 8e 86 0a 3d f3 c8 cb 3b 45 47 17 3d
       -0.055676315 0.033819728 0.0062190234 0.036933202
0000b0 4d 02 83 3b 2a 12 cf bc b8 2d f7 3c 86 ff 1a bd
       0.003998077 -0.025277216 0.030173168 -0.037841342
0000c0 f4 09 43 bd d1 e2 2f 3d 99 a5 92 3d a1 9e 6d bd
       -0.047616914 0.04294092 0.071604915 -0.05801261
0000d0 90 52 80 3d 53 dc 60 3c c0 a1 69 3d f1 e3 01 3c
       0.062657475 0.013724404 0.057039022 0.007927881
0000e0 ec 06 c0 bc 00 6d 39 bb a9 a9 9e 3c 49 cd 67 bc
       -0.0234408 -0.0028293729 0.01936801 -0.014148065
0000f0 61 6b 39 3d b3 a1 9c 3c 27 cf 0d bd 54 08 bf 3d
       0.04526842 0.019120073 -0.034621384 0.0932776
000100 da bb 29 3d 96 c3 87 bd 44 cf 84 bc 0f e6 dc 3c
       0.041438915 -0.06629102 -0.016212113 0.02696517
000110 1f a9 d1 bc 73 dd 22 bb b2 37 20 3d a7 77 53 be
       -0.025593339 -0.0024851232 0.039115615 -0.20651112
000120 00 bc d6 bc 68 7e 04 3d 1c 96 83 3c b2 20 8e bd
       -0.026212692 0.032347113 0.016062789 -0.0693983
000130 e5 9a 6f bd ab 2d 6a bd cf fe 06 3d 2b 2a 54 3d
       -0.05849733 -0.05717246 0.03295785 0.051798027
000140 6b 65 71 ba 5f db 57 bd 98 c1 c3 3b 2f da 27 3d
       -0.0009208533 -0.052699443 0.005974006 0.04097956
000150 2d 0f 98 bc 2c e7 34 bc 96 b2 34 bd 9b 39 ad 3b
       -0.018561924 -0.011041444 -0.044115625 0.005286408
000160 a3 c7 4e 3c bf 74 0a 3d 8e 88 e9 3d a5 02 70 3b
       0.012620839 0.033802744 0.11402999 0.003662267
000170 17 89 f3 bd d7 48 03 3d 68 45 c9 bc c2 41 a9 3c
       -0.11891382 0.032051887 -0.024569228 0.020661239
000180 7f 7b 2b 3a 20 33 85 3c e2 d7 e9 3c 3d 05 ef 3c
       0.00065415347 0.01625973 0.028545324 0.029177302
000190 8d d3 08 bd 33 89 83 3c 2e 89 19 bd 96 11 94 bc
       -0.033404876 0.016056633 -0.03748434 -0.018074792
0001a0 be c4 42 3d 9d 14 22 bd 36 b3 ed bb 06 5f 1a bd
       0.04755091 -0.03957044 -0.0072540296 -0.037688278
0001b0 a8 43 67 bd a2 89 2c 3b 33 84 b5 bd 71 5a ec 3c
       -0.056461006 0.0026327153 -0.088631056 0.02885172
0001c0 47 8c a7 bc 34 0d 86 bc b7 22 87 bc 2d 28 50 3d
       -0.020452632 -0.016363718 -0.016496046 0.050819565
0001d0 79 08 c3 3c b7 01 38 bc 8a 8b af 3d dd ef 75 bd
       0.023807751 -0.011230878 0.08571537 -0.060043205
0001e0 0c 99 1e 3c f3 90 06 3d 80 62 0f 38 9a 1a 88 bc
       0.009680044 0.032853078 3.4185592e-05 -0.016614247
0001f0 a1 f1 89 bb 4a 8e 3c bd df 33 f6 3c 0a dd 5e bc
       -0.0042097126 -0.046034135 0.030054031 -0.0136025045
000200 4d 18 c4 bc f7 0c ef 3c be f3 88 bc 6b 27 5b ba
       -0.023937369 0.029180987 -0.016717788 -0.0008360061
000210 98 01 04 bd 43 86 9c bd 1d 10 07 3e db b4 a8 3c
       -0.032228082 -0.07642796 0.1318974 0.020594051
000220 1a 2a c0 bc 7c cb e9 bc 93 0c 27 3d f3 44 c1 3c
       -0.023457576 -0.028539412 0.040783476 0.023592448
000230 0e 59 19 3c 99 eb 2c bc 1b 58 44 3d 6e f6 80 3d
       0.009359611 -0.010554218 0.047935586 0.06297003
000240 f1 ab fc bc 1f 4c 89 3d 22 ed 15 3d 01 8a 6d 3d
       -0.030843707 0.06703972 0.0366031 0.05799294
000250 da 02 16 bd 3c 2d 88 ba cb 5f 95 bc 89 38 d1 bc
       -0.036623813 -0.0010389457 -0.018234154 -0.025539653
000260 d2 29 34 bd 35 0f 05 3d 32 99 6d 3d 37 5c 0c bb
       -0.043985195 0.032485206 0.058007427 -0.002141727
000270 2a b8 6b bc af 56 96 bc 84 70 4c bd ce 69 b8 bc
       -0.01438717 -0.01835188 -0.04991199 -0.02251139
000280 d0 53 d2 3c a8 73 d3 bc fd 2d 75 bc 05 cd d2 3c
       0.02567473 -0.025811985 -0.014964578 0.025732527
000290 88 79 3d 3d 86 17 8e bd 84 c6 2b bd a0 ac da 3d
       0.04625848 -0.069380805 -0.041937366 0.10677457
0002a0 0d d1 1a bd 53 ae 5b 3d 52 c2 27 3a 32 6c f5 3b
       -0.037797023 0.053633045 0.00063995004 0.0074897045
0002b0 c4 79 bd bc 37 ef 8b bd 5d 5b f5 3c e5 0d 55 bb
       -0.023129351 -0.06832736 0.029950792 -0.0032509502
0002c0 4a 2c fa bc b6 12 da 3c 6d b7 63 3d 58 9a 7a bd
       -0.030538697 0.02662025 0.05559485 -0.06118235
0002d0 61 c3 38 3d 26 4c 36 3c 6b 3d 01 3d 27 24 3c 3c
       0.045108203 0.011126554 0.031552713 0.011483229
0002e0 c9 d9 de 3b 09 9c f2 bc 95 28 79 3c a1 a9 d1 bb
       0.0068008644 -0.029615419 0.015207429 -0.006398395
0002f0 d8 38 2c 3c a4 ef a5 bc 89 36 9b bb 00 0b be 3d
       0.0105115995 -0.020255871 -0.0047367257 0.09279442
000300 d6 9e 88 3c 14 83 91 bd 6b c8 17 bd fe 35 9e 3b
       0.016677301 -0.07105079 -0.037056368 0.0048282137
000310 8b 72 d3 ba 8c 58 ef bc d7 9a 9f 3c b7 c5 71 3e
       -0.0016132159 -0.029217027 0.019483013 0.23610578
000320 e0 9d 1e bd 14 d4 8b 3b bf cb 46 bc a7 b2 1a bc
       -0.03872478 0.004267225 -0.012133538 -0.009442008
000330 27 d5 7c bd 39 b4 02 be a3 f3 a9 bc bb f0 87 3d
       -0.061726715 -0.12764062 -0.020746058 0.066377126
000340 5a 9b cb bc 2c b9 5b bd e1 a0 a8 bb 80 3a 16 3d
       -0.02485435 -0.05364339 -0.0051461314 0.036676884
000350 2a 49 03 bc d4 dc db bc 94 5f d9 bc d6 36 fe 3b
       -0.008013049 -0.026838697 -0.026534833 0.007758002
000360 53 6c 2b 3d 3e a1 b2 3c d4 19 45 be 68 a0 8c 3d
       0.041851353 0.021805402 -0.19248134 0.068665326
000370 57 a2 41 3e 1b 72 87 3c 7a 2a 62 bd 0e 8e 9d bb
       0.18909584 0.016533902 -0.05521629 -0.004808194
000380 26 e3 c4 3b d0 f1 5c 3c 61 fe da 3c 4a 7e 67 3d
       0.0060085235 0.013485387 0.026732625 0.056516923
000390 0b 8a 43 bd aa f1 c4 3c 80 6e 68 bd 98 ba d7 bc
       -0.04773907 0.024041016 -0.056746006 -0.026334092
0003a0 13 55 65 3d 24 46 cc bc 53 54 26 3c 1a 7a 2b bd
       0.055989336 -0.02493579 0.01015194 -0.041864492
0003b0 03 61 4d bd e6 76 d5 bc 93 52 d7 3d 6e 34 1b 3d
       -0.050141346 -0.026057672 0.10513797 0.037891798
0003c0 fa 21 cb bc 5c 48 94 bc 8f 07 c3 3c b8 1c cd 3c
       -0.024796475 -0.01810091 0.023807315 0.025038108
0003d0 e1 38 79 3c 28 72 a2 3c e0 55 b6 3d 24 21 18 bd
       0.015211315 0.019829825 0.08903098 -0.03714098
0003e0 6d f0 0f 3c 0b 44 2e bb f6 4b 13 be b3 b6 9e bd
       0.008785349 -0.002659085 -0.14384446 -0.07749691
0003f0 ae 6e 31 bc 3a b1 0b bc dc 9f 5d bc 8e 06 7b 3c
       -0.010829611 -0.008526141 -0.013526883 0.015321387

classifier.bias f4 [3]
000000 4d 88 46 3e 90 9c 92 3d 86 d2 9e be
       0.19387932 0.07158768 -0.31019992
